…
et121_607_443_adam.cfg
model: densenet121
model weights file: D:/Downloads/amazon/bottleneck/densenet121/frozen607_20170708-151931_weights_only.h5
number of frozen layers: 443
[0.01, 0.001, 0.0002]
[50, 10, 5]
batch size: 32
(40479L, 224L, 224L, 3L)
(40479L, 17L)
____________________________________________________________________________________________________
Layer (type)                     Output Shape          Param #     Connected to                     
====================================================================================================
data (InputLayer)                (None, 3, 224, 224)   0                                            
____________________________________________________________________________________________________
conv1_zeropadding (ZeroPadding2D (None, 3, 230, 230)   0           data[0][0]                       
____________________________________________________________________________________________________
conv1 (Convolution2D)            (None, 64, 112, 112)  9408        conv1_zeropadding[0][0]          
____________________________________________________________________________________________________
conv1_bn (BatchNormalization)    (None, 64, 112, 112)  256         conv1[0][0]                      
____________________________________________________________________________________________________
conv1_scale (Scale)              (None, 64, 112, 112)  128         conv1_bn[0][0]                   
____________________________________________________________________________________________________
relu1 (Activation)               (None, 64, 112, 112)  0           conv1_scale[0][0]                
____________________________________________________________________________________________________
pool1_zeropadding (ZeroPadding2D (None, 64, 114, 114)  0           relu1[0][0]                      
____________________________________________________________________________________________________
pool1 (MaxPooling2D)             (None, 64, 56, 56)    0           pool1_zeropadding[0][0]          
____________________________________________________________________________________________________
conv2_1_x1_bn (BatchNormalizatio (None, 64, 56, 56)    256         pool1[0][0]                      
____________________________________________________________________________________________________
conv2_1_x1_scale (Scale)         (None, 64, 56, 56)    128         conv2_1_x1_bn[0][0]              
____________________________________________________________________________________________________
relu2_1_x1 (Activation)          (None, 64, 56, 56)    0           conv2_1_x1_scale[0][0]           
____________________________________________________________________________________________________
conv2_1_x1 (Convolution2D)       (None, 128, 56, 56)   8192        relu2_1_x1[0][0]                 
____________________________________________________________________________________________________
conv2_1_x2_bn (BatchNormalizatio (None, 128, 56, 56)   512         conv2_1_x1[0][0]                 
____________________________________________________________________________________________________
conv2_1_x2_scale (Scale)         (None, 128, 56, 56)   256         conv2_1_x2_bn[0][0]              
____________________________________________________________________________________________________
relu2_1_x2 (Activation)          (None, 128, 56, 56)   0           conv2_1_x2_scale[0][0]           
____________________________________________________________________________________________________
conv2_1_x2_zeropadding (ZeroPadd (None, 128, 58, 58)   0           relu2_1_x2[0][0]                 
____________________________________________________________________________________________________
conv2_1_x2 (Convolution2D)       (None, 32, 56, 56)    36864       conv2_1_x2_zeropadding[0][0]     
____________________________________________________________________________________________________
concat_2_1 (Merge)               (None, 96, 56, 56)    0           pool1[0][0]                      
                                                                   conv2_1_x2[0][0]                 
____________________________________________________________________________________________________
conv2_2_x1_bn (BatchNormalizatio (None, 96, 56, 56)    384         concat_2_1[0][0]                 
____________________________________________________________________________________________________
conv2_2_x1_scale (Scale)         (None, 96, 56, 56)    192         conv2_2_x1_bn[0][0]              
____________________________________________________________________________________________________
relu2_2_x1 (Activation)          (None, 96, 56, 56)    0           conv2_2_x1_scale[0][0]           
____________________________________________________________________________________________________
conv2_2_x1 (Convolution2D)       (None, 128, 56, 56)   12288       relu2_2_x1[0][0]                 
____________________________________________________________________________________________________
conv2_2_x2_bn (BatchNormalizatio (None, 128, 56, 56)   512         conv2_2_x1[0][0]                 
____________________________________________________________________________________________________
conv2_2_x2_scale (Scale)         (None, 128, 56, 56)   256         conv2_2_x2_bn[0][0]              
____________________________________________________________________________________________________
relu2_2_x2 (Activation)          (None, 128, 56, 56)   0           conv2_2_x2_scale[0][0]           
____________________________________________________________________________________________________
conv2_2_x2_zeropadding (ZeroPadd (None, 128, 58, 58)   0           relu2_2_x2[0][0]                 
____________________________________________________________________________________________________
conv2_2_x2 (Convolution2D)       (None, 32, 56, 56)    36864       conv2_2_x2_zeropadding[0][0]     
____________________________________________________________________________________________________
concat_2_2 (Merge)               (None, 128, 56, 56)   0           concat_2_1[0][0]                 
                                                                   conv2_2_x2[0][0]                 
____________________________________________________________________________________________________
conv2_3_x1_bn (BatchNormalizatio (None, 128, 56, 56)   512         concat_2_2[0][0]                 
____________________________________________________________________________________________________
conv2_3_x1_scale (Scale)         (None, 128, 56, 56)   256         conv2_3_x1_bn[0][0]              
____________________________________________________________________________________________________
relu2_3_x1 (Activation)          (None, 128, 56, 56)   0           conv2_3_x1_scale[0][0]           
____________________________________________________________________________________________________
conv2_3_x1 (Convolution2D)       (None, 128, 56, 56)   16384       relu2_3_x1[0][0]                 
____________________________________________________________________________________________________
conv2_3_x2_bn (BatchNormalizatio (None, 128, 56, 56)   512         conv2_3_x1[0][0]                 
____________________________________________________________________________________________________
conv2_3_x2_scale (Scale)         (None, 128, 56, 56)   256         conv2_3_x2_bn[0][0]              
____________________________________________________________________________________________________
relu2_3_x2 (Activation)          (None, 128, 56, 56)   0           conv2_3_x2_scale[0][0]           
____________________________________________________________________________________________________
conv2_3_x2_zeropadding (ZeroPadd (None, 128, 58, 58)   0           relu2_3_x2[0][0]                 
____________________________________________________________________________________________________
conv2_3_x2 (Convolution2D)       (None, 32, 56, 56)    36864       conv2_3_x2_zeropadding[0][0]     
____________________________________________________________________________________________________
concat_2_3 (Merge)               (None, 160, 56, 56)   0           concat_2_2[0][0]                 
                                                                   conv2_3_x2[0][0]                 
____________________________________________________________________________________________________
conv2_4_x1_bn (BatchNormalizatio (None, 160, 56, 56)   640         concat_2_3[0][0]                 
____________________________________________________________________________________________________
conv2_4_x1_scale (Scale)         (None, 160, 56, 56)   320         conv2_4_x1_bn[0][0]              
____________________________________________________________________________________________________
relu2_4_x1 (Activation)          (None, 160, 56, 56)   0           conv2_4_x1_scale[0][0]           
____________________________________________________________________________________________________
conv2_4_x1 (Convolution2D)       (None, 128, 56, 56)   20480       relu2_4_x1[0][0]                 
____________________________________________________________________________________________________
conv2_4_x2_bn (BatchNormalizatio (None, 128, 56, 56)   512         conv2_4_x1[0][0]                 
____________________________________________________________________________________________________
conv2_4_x2_scale (Scale)         (None, 128, 56, 56)   256         conv2_4_x2_bn[0][0]              
____________________________________________________________________________________________________
relu2_4_x2 (Activation)          (None, 128, 56, 56)   0           conv2_4_x2_scale[0][0]           
____________________________________________________________________________________________________
conv2_4_x2_zeropadding (ZeroPadd (None, 128, 58, 58)   0           relu2_4_x2[0][0]                 
____________________________________________________________________________________________________
conv2_4_x2 (Convolution2D)       (None, 32, 56, 56)    36864       conv2_4_x2_zeropadding[0][0]     
____________________________________________________________________________________________________
concat_2_4 (Merge)               (None, 192, 56, 56)   0           concat_2_3[0][0]                 
                                                                   conv2_4_x2[0][0]                 
____________________________________________________________________________________________________
conv2_5_x1_bn (BatchNormalizatio (None, 192, 56, 56)   768         concat_2_4[0][0]                 
____________________________________________________________________________________________________
conv2_5_x1_scale (Scale)         (None, 192, 56, 56)   384         conv2_5_x1_bn[0][0]              
____________________________________________________________________________________________________
relu2_5_x1 (Activation)          (None, 192, 56, 56)   0           conv2_5_x1_scale[0][0]           
____________________________________________________________________________________________________
conv2_5_x1 (Convolution2D)       (None, 128, 56, 56)   24576       relu2_5_x1[0][0]                 
____________________________________________________________________________________________________
conv2_5_x2_bn (BatchNormalizatio (None, 128, 56, 56)   512         conv2_5_x1[0][0]                 
____________________________________________________________________________________________________
conv2_5_x2_scale (Scale)         (None, 128, 56, 56)   256         conv2_5_x2_bn[0][0]              
____________________________________________________________________________________________________
relu2_5_x2 (Activation)          (None, 128, 56, 56)   0           conv2_5_x2_scale[0][0]           
____________________________________________________________________________________________________
conv2_5_x2_zeropadding (ZeroPadd (None, 128, 58, 58)   0           relu2_5_x2[0][0]                 
____________________________________________________________________________________________________
conv2_5_x2 (Convolution2D)       (None, 32, 56, 56)    36864       conv2_5_x2_zeropadding[0][0]     
____________________________________________________________________________________________________
concat_2_5 (Merge)               (None, 224, 56, 56)   0           concat_2_4[0][0]                 
                                                                   conv2_5_x2[0][0]                 
____________________________________________________________________________________________________
conv2_6_x1_bn (BatchNormalizatio (None, 224, 56, 56)   896         concat_2_5[0][0]                 
____________________________________________________________________________________________________
conv2_6_x1_scale (Scale)         (None, 224, 56, 56)   448         conv2_6_x1_bn[0][0]              
____________________________________________________________________________________________________
relu2_6_x1 (Activation)          (None, 224, 56, 56)   0           conv2_6_x1_scale[0][0]           
____________________________________________________________________________________________________
conv2_6_x1 (Convolution2D)       (None, 128, 56, 56)   28672       relu2_6_x1[0][0]                 
____________________________________________________________________________________________________
conv2_6_x2_bn (BatchNormalizatio (None, 128, 56, 56)   512         conv2_6_x1[0][0]                 
____________________________________________________________________________________________________
conv2_6_x2_scale (Scale)         (None, 128, 56, 56)   256         conv2_6_x2_bn[0][0]              
____________________________________________________________________________________________________
relu2_6_x2 (Activation)          (None, 128, 56, 56)   0           conv2_6_x2_scale[0][0]           
____________________________________________________________________________________________________
conv2_6_x2_zeropadding (ZeroPadd (None, 128, 58, 58)   0           relu2_6_x2[0][0]                 
____________________________________________________________________________________________________
conv2_6_x2 (Convolution2D)       (None, 32, 56, 56)    36864       conv2_6_x2_zeropadding[0][0]     
____________________________________________________________________________________________________
concat_2_6 (Merge)               (None, 256, 56, 56)   0           concat_2_5[0][0]                 
                                                                   conv2_6_x2[0][0]                 
____________________________________________________________________________________________________
conv2_blk_bn (BatchNormalization (None, 256, 56, 56)   1024        concat_2_6[0][0]                 
____________________________________________________________________________________________________
conv2_blk_scale (Scale)          (None, 256, 56, 56)   512         conv2_blk_bn[0][0]               
____________________________________________________________________________________________________
relu2_blk (Activation)           (None, 256, 56, 56)   0           conv2_blk_scale[0][0]            
____________________________________________________________________________________________________
conv2_blk (Convolution2D)        (None, 128, 56, 56)   32768       relu2_blk[0][0]                  
____________________________________________________________________________________________________
pool2 (AveragePooling2D)         (None, 128, 28, 28)   0           conv2_blk[0][0]                  
____________________________________________________________________________________________________
conv3_1_x1_bn (BatchNormalizatio (None, 128, 28, 28)   512         pool2[0][0]                      
____________________________________________________________________________________________________
conv3_1_x1_scale (Scale)         (None, 128, 28, 28)   256         conv3_1_x1_bn[0][0]              
____________________________________________________________________________________________________
relu3_1_x1 (Activation)          (None, 128, 28, 28)   0           conv3_1_x1_scale[0][0]           
____________________________________________________________________________________________________
conv3_1_x1 (Convolution2D)       (None, 128, 28, 28)   16384       relu3_1_x1[0][0]                 
____________________________________________________________________________________________________
conv3_1_x2_bn (BatchNormalizatio (None, 128, 28, 28)   512         conv3_1_x1[0][0]                 
____________________________________________________________________________________________________
conv3_1_x2_scale (Scale)         (None, 128, 28, 28)   256         conv3_1_x2_bn[0][0]              
____________________________________________________________________________________________________
relu3_1_x2 (Activation)          (None, 128, 28, 28)   0           conv3_1_x2_scale[0][0]           
____________________________________________________________________________________________________
conv3_1_x2_zeropadding (ZeroPadd (None, 128, 30, 30)   0           relu3_1_x2[0][0]                 
____________________________________________________________________________________________________
conv3_1_x2 (Convolution2D)       (None, 32, 28, 28)    36864       conv3_1_x2_zeropadding[0][0]     
____________________________________________________________________________________________________
concat_3_1 (Merge)               (None, 160, 28, 28)   0           pool2[0][0]                      
                                                                   conv3_1_x2[0][0]                 
____________________________________________________________________________________________________
conv3_2_x1_bn (BatchNormalizatio (None, 160, 28, 28)   640         concat_3_1[0][0]                 
____________________________________________________________________________________________________
conv3_2_x1_scale (Scale)         (None, 160, 28, 28)   320         conv3_2_x1_bn[0][0]              
____________________________________________________________________________________________________
relu3_2_x1 (Activation)          (None, 160, 28, 28)   0           conv3_2_x1_scale[0][0]           
____________________________________________________________________________________________________
conv3_2_x1 (Convolution2D)       (None, 128, 28, 28)   20480       relu3_2_x1[0][0]                 
____________________________________________________________________________________________________
conv3_2_x2_bn (BatchNormalizatio (None, 128, 28, 28)   512         conv3_2_x1[0][0]                 
____________________________________________________________________________________________________
conv3_2_x2_scale (Scale)         (None, 128, 28, 28)   256         conv3_2_x2_bn[0][0]              
____________________________________________________________________________________________________
relu3_2_x2 (Activation)          (None, 128, 28, 28)   0           conv3_2_x2_scale[0][0]           
____________________________________________________________________________________________________
conv3_2_x2_zeropadding (ZeroPadd (None, 128, 30, 30)   0           relu3_2_x2[0][0]                 
____________________________________________________________________________________________________
conv3_2_x2 (Convolution2D)       (None, 32, 28, 28)    36864       conv3_2_x2_zeropadding[0][0]     
____________________________________________________________________________________________________
concat_3_2 (Merge)               (None, 192, 28, 28)   0           concat_3_1[0][0]                 
                                                                   conv3_2_x2[0][0]                 
____________________________________________________________________________________________________
conv3_3_x1_bn (BatchNormalizatio (None, 192, 28, 28)   768         concat_3_2[0][0]                 
____________________________________________________________________________________________________
conv3_3_x1_scale (Scale)         (None, 192, 28, 28)   384         conv3_3_x1_bn[0][0]              
____________________________________________________________________________________________________
relu3_3_x1 (Activation)          (None, 192, 28, 28)   0           conv3_3_x1_scale[0][0]           
____________________________________________________________________________________________________
conv3_3_x1 (Convolution2D)       (None, 128, 28, 28)   24576       relu3_3_x1[0][0]                 
____________________________________________________________________________________________________
conv3_3_x2_bn (BatchNormalizatio (None, 128, 28, 28)   512         conv3_3_x1[0][0]                 
____________________________________________________________________________________________________
conv3_3_x2_scale (Scale)         (None, 128, 28, 28)   256         conv3_3_x2_bn[0][0]              
____________________________________________________________________________________________________
relu3_3_x2 (Activation)          (None, 128, 28, 28)   0           conv3_3_x2_scale[0][0]           
____________________________________________________________________________________________________
conv3_3_x2_zeropadding (ZeroPadd (None, 128, 30, 30)   0           relu3_3_x2[0][0]                 
____________________________________________________________________________________________________
conv3_3_x2 (Convolution2D)       (None, 32, 28, 28)    36864       conv3_3_x2_zeropadding[0][0]     
____________________________________________________________________________________________________
concat_3_3 (Merge)               (None, 224, 28, 28)   0           concat_3_2[0][0]                 
                                                                   conv3_3_x2[0][0]                 
____________________________________________________________________________________________________
conv3_4_x1_bn (BatchNormalizatio (None, 224, 28, 28)   896         concat_3_3[0][0]                 
____________________________________________________________________________________________________
conv3_4_x1_scale (Scale)         (None, 224, 28, 28)   448         conv3_4_x1_bn[0][0]              
____________________________________________________________________________________________________
relu3_4_x1 (Activation)          (None, 224, 28, 28)   0           conv3_4_x1_scale[0][0]           
____________________________________________________________________________________________________
conv3_4_x1 (Convolution2D)       (None, 128, 28, 28)   28672       relu3_4_x1[0][0]                 
____________________________________________________________________________________________________
conv3_4_x2_bn (BatchNormalizatio (None, 128, 28, 28)   512         conv3_4_x1[0][0]                 
____________________________________________________________________________________________________
conv3_4_x2_scale (Scale)         (None, 128, 28, 28)   256         conv3_4_x2_bn[0][0]              
____________________________________________________________________________________________________
relu3_4_x2 (Activation)          (None, 128, 28, 28)   0           conv3_4_x2_scale[0][0]           
____________________________________________________________________________________________________
conv3_4_x2_zeropadding (ZeroPadd (None, 128, 30, 30)   0           relu3_4_x2[0][0]                 
____________________________________________________________________________________________________
conv3_4_x2 (Convolution2D)       (None, 32, 28, 28)    36864       conv3_4_x2_zeropadding[0][0]     
____________________________________________________________________________________________________
concat_3_4 (Merge)               (None, 256, 28, 28)   0           concat_3_3[0][0]                 
                                                                   conv3_4_x2[0][0]                 
____________________________________________________________________________________________________
conv3_5_x1_bn (BatchNormalizatio (None, 256, 28, 28)   1024        concat_3_4[0][0]                 
____________________________________________________________________________________________________
conv3_5_x1_scale (Scale)         (None, 256, 28, 28)   512         conv3_5_x1_bn[0][0]              
____________________________________________________________________________________________________
relu3_5_x1 (Activation)          (None, 256, 28, 28)   0           conv3_5_x1_scale[0][0]           
____________________________________________________________________________________________________
conv3_5_x1 (Convolution2D)       (None, 128, 28, 28)   32768       relu3_5_x1[0][0]                 
____________________________________________________________________________________________________
conv3_5_x2_bn (BatchNormalizatio (None, 128, 28, 28)   512         conv3_5_x1[0][0]                 
____________________________________________________________________________________________________
conv3_5_x2_scale (Scale)         (None, 128, 28, 28)   256         conv3_5_x2_bn[0][0]              
____________________________________________________________________________________________________
relu3_5_x2 (Activation)          (None, 128, 28, 28)   0           conv3_5_x2_scale[0][0]           
____________________________________________________________________________________________________
conv3_5_x2_zeropadding (ZeroPadd (None, 128, 30, 30)   0           relu3_5_x2[0][0]                 
____________________________________________________________________________________________________
conv3_5_x2 (Convolution2D)       (None, 32, 28, 28)    36864       conv3_5_x2_zeropadding[0][0]     
____________________________________________________________________________________________________
concat_3_5 (Merge)               (None, 288, 28, 28)   0           concat_3_4[0][0]                 
                                                                   conv3_5_x2[0][0]                 
____________________________________________________________________________________________________
conv3_6_x1_bn (BatchNormalizatio (None, 288, 28, 28)   1152        concat_3_5[0][0]                 
____________________________________________________________________________________________________
conv3_6_x1_scale (Scale)         (None, 288, 28, 28)   576         conv3_6_x1_bn[0][0]              
____________________________________________________________________________________________________
relu3_6_x1 (Activation)          (None, 288, 28, 28)   0           conv3_6_x1_scale[0][0]           
____________________________________________________________________________________________________
conv3_6_x1 (Convolution2D)       (None, 128, 28, 28)   36864       relu3_6_x1[0][0]                 
____________________________________________________________________________________________________
conv3_6_x2_bn (BatchNormalizatio (None, 128, 28, 28)   512         conv3_6_x1[0][0]                 
____________________________________________________________________________________________________
conv3_6_x2_scale (Scale)         (None, 128, 28, 28)   256         conv3_6_x2_bn[0][0]              
____________________________________________________________________________________________________
relu3_6_x2 (Activation)          (None, 128, 28, 28)   0           conv3_6_x2_scale[0][0]           
____________________________________________________________________________________________________
conv3_6_x2_zeropadding (ZeroPadd (None, 128, 30, 30)   0           relu3_6_x2[0][0]                 
____________________________________________________________________________________________________
conv3_6_x2 (Convolution2D)       (None, 32, 28, 28)    36864       conv3_6_x2_zeropadding[0][0]     
____________________________________________________________________________________________________
concat_3_6 (Merge)               (None, 320, 28, 28)   0           concat_3_5[0][0]                 
                                                                   conv3_6_x2[0][0]                 
____________________________________________________________________________________________________
conv3_7_x1_bn (BatchNormalizatio (None, 320, 28, 28)   1280        concat_3_6[0][0]                 
____________________________________________________________________________________________________
conv3_7_x1_scale (Scale)         (None, 320, 28, 28)   640         conv3_7_x1_bn[0][0]              
____________________________________________________________________________________________________
relu3_7_x1 (Activation)          (None, 320, 28, 28)   0           conv3_7_x1_scale[0][0]           
____________________________________________________________________________________________________
conv3_7_x1 (Convolution2D)       (None, 128, 28, 28)   40960       relu3_7_x1[0][0]                 
____________________________________________________________________________________________________
conv3_7_x2_bn (BatchNormalizatio (None, 128, 28, 28)   512         conv3_7_x1[0][0]                 
____________________________________________________________________________________________________
conv3_7_x2_scale (Scale)         (None, 128, 28, 28)   256         conv3_7_x2_bn[0][0]              
____________________________________________________________________________________________________
relu3_7_x2 (Activation)          (None, 128, 28, 28)   0           conv3_7_x2_scale[0][0]           
____________________________________________________________________________________________________
conv3_7_x2_zeropadding (ZeroPadd (None, 128, 30, 30)   0           relu3_7_x2[0][0]                 
____________________________________________________________________________________________________
conv3_7_x2 (Convolution2D)       (None, 32, 28, 28)    36864       conv3_7_x2_zeropadding[0][0]     
____________________________________________________________________________________________________
concat_3_7 (Merge)               (None, 352, 28, 28)   0           concat_3_6[0][0]                 
                                                                   conv3_7_x2[0][0]                 
____________________________________________________________________________________________________
conv3_8_x1_bn (BatchNormalizatio (None, 352, 28, 28)   1408        concat_3_7[0][0]                 
____________________________________________________________________________________________________
conv3_8_x1_scale (Scale)         (None, 352, 28, 28)   704         conv3_8_x1_bn[0][0]              
____________________________________________________________________________________________________
relu3_8_x1 (Activation)          (None, 352, 28, 28)   0           conv3_8_x1_scale[0][0]           
____________________________________________________________________________________________________
conv3_8_x1 (Convolution2D)       (None, 128, 28, 28)   45056       relu3_8_x1[0][0]                 
____________________________________________________________________________________________________
conv3_8_x2_bn (BatchNormalizatio (None, 128, 28, 28)   512         conv3_8_x1[0][0]                 
____________________________________________________________________________________________________
conv3_8_x2_scale (Scale)         (None, 128, 28, 28)   256         conv3_8_x2_bn[0][0]              
____________________________________________________________________________________________________
relu3_8_x2 (Activation)          (None, 128, 28, 28)   0           conv3_8_x2_scale[0][0]           
____________________________________________________________________________________________________
conv3_8_x2_zeropadding (ZeroPadd (None, 128, 30, 30)   0           relu3_8_x2[0][0]                 
____________________________________________________________________________________________________
conv3_8_x2 (Convolution2D)       (None, 32, 28, 28)    36864       conv3_8_x2_zeropadding[0][0]     
____________________________________________________________________________________________________
concat_3_8 (Merge)               (None, 384, 28, 28)   0           concat_3_7[0][0]                 
                                                                   conv3_8_x2[0][0]                 
____________________________________________________________________________________________________
conv3_9_x1_bn (BatchNormalizatio (None, 384, 28, 28)   1536        concat_3_8[0][0]                 
____________________________________________________________________________________________________
conv3_9_x1_scale (Scale)         (None, 384, 28, 28)   768         conv3_9_x1_bn[0][0]              
____________________________________________________________________________________________________
relu3_9_x1 (Activation)          (None, 384, 28, 28)   0           conv3_9_x1_scale[0][0]           
____________________________________________________________________________________________________
conv3_9_x1 (Convolution2D)       (None, 128, 28, 28)   49152       relu3_9_x1[0][0]                 
____________________________________________________________________________________________________
conv3_9_x2_bn (BatchNormalizatio (None, 128, 28, 28)   512         conv3_9_x1[0][0]                 
____________________________________________________________________________________________________
conv3_9_x2_scale (Scale)         (None, 128, 28, 28)   256         conv3_9_x2_bn[0][0]              
____________________________________________________________________________________________________
relu3_9_x2 (Activation)          (None, 128, 28, 28)   0           conv3_9_x2_scale[0][0]           
____________________________________________________________________________________________________
conv3_9_x2_zeropadding (ZeroPadd (None, 128, 30, 30)   0           relu3_9_x2[0][0]                 
____________________________________________________________________________________________________
conv3_9_x2 (Convolution2D)       (None, 32, 28, 28)    36864       conv3_9_x2_zeropadding[0][0]     
____________________________________________________________________________________________________
concat_3_9 (Merge)               (None, 416, 28, 28)   0           concat_3_8[0][0]                 
                                                                   conv3_9_x2[0][0]                 
____________________________________________________________________________________________________
conv3_10_x1_bn (BatchNormalizati (None, 416, 28, 28)   1664        concat_3_9[0][0]                 
____________________________________________________________________________________________________
conv3_10_x1_scale (Scale)        (None, 416, 28, 28)   832         conv3_10_x1_bn[0][0]             
____________________________________________________________________________________________________
relu3_10_x1 (Activation)         (None, 416, 28, 28)   0           conv3_10_x1_scale[0][0]          
____________________________________________________________________________________________________
conv3_10_x1 (Convolution2D)      (None, 128, 28, 28)   53248       relu3_10_x1[0][0]                
____________________________________________________________________________________________________
conv3_10_x2_bn (BatchNormalizati (None, 128, 28, 28)   512         conv3_10_x1[0][0]                
____________________________________________________________________________________________________
conv3_10_x2_scale (Scale)        (None, 128, 28, 28)   256         conv3_10_x2_bn[0][0]             
____________________________________________________________________________________________________
relu3_10_x2 (Activation)         (None, 128, 28, 28)   0           conv3_10_x2_scale[0][0]          
____________________________________________________________________________________________________
conv3_10_x2_zeropadding (ZeroPad (None, 128, 30, 30)   0           relu3_10_x2[0][0]                
____________________________________________________________________________________________________
conv3_10_x2 (Convolution2D)      (None, 32, 28, 28)    36864       conv3_10_x2_zeropadding[0][0]    
____________________________________________________________________________________________________
concat_3_10 (Merge)              (None, 448, 28, 28)   0           concat_3_9[0][0]                 
                                                                   conv3_10_x2[0][0]                
____________________________________________________________________________________________________
conv3_11_x1_bn (BatchNormalizati (None, 448, 28, 28)   1792        concat_3_10[0][0]                
____________________________________________________________________________________________________
conv3_11_x1_scale (Scale)        (None, 448, 28, 28)   896         conv3_11_x1_bn[0][0]             
____________________________________________________________________________________________________
relu3_11_x1 (Activation)         (None, 448, 28, 28)   0           conv3_11_x1_scale[0][0]          
____________________________________________________________________________________________________
conv3_11_x1 (Convolution2D)      (None, 128, 28, 28)   57344       relu3_11_x1[0][0]                
____________________________________________________________________________________________________
conv3_11_x2_bn (BatchNormalizati (None, 128, 28, 28)   512         conv3_11_x1[0][0]                
____________________________________________________________________________________________________
conv3_11_x2_scale (Scale)        (None, 128, 28, 28)   256         conv3_11_x2_bn[0][0]             
____________________________________________________________________________________________________
relu3_11_x2 (Activation)         (None, 128, 28, 28)   0           conv3_11_x2_scale[0][0]          
____________________________________________________________________________________________________
conv3_11_x2_zeropadding (ZeroPad (None, 128, 30, 30)   0           relu3_11_x2[0][0]                
____________________________________________________________________________________________________
conv3_11_x2 (Convolution2D)      (None, 32, 28, 28)    36864       conv3_11_x2_zeropadding[0][0]    
____________________________________________________________________________________________________
concat_3_11 (Merge)              (None, 480, 28, 28)   0           concat_3_10[0][0]                
                                                                   conv3_11_x2[0][0]                
____________________________________________________________________________________________________
conv3_12_x1_bn (BatchNormalizati (None, 480, 28, 28)   1920        concat_3_11[0][0]                
____________________________________________________________________________________________________
conv3_12_x1_scale (Scale)        (None, 480, 28, 28)   960         conv3_12_x1_bn[0][0]             
____________________________________________________________________________________________________
relu3_12_x1 (Activation)         (None, 480, 28, 28)   0           conv3_12_x1_scale[0][0]          
____________________________________________________________________________________________________
conv3_12_x1 (Convolution2D)      (None, 128, 28, 28)   61440       relu3_12_x1[0][0]                
____________________________________________________________________________________________________
conv3_12_x2_bn (BatchNormalizati (None, 128, 28, 28)   512         conv3_12_x1[0][0]                
____________________________________________________________________________________________________
conv3_12_x2_scale (Scale)        (None, 128, 28, 28)   256         conv3_12_x2_bn[0][0]             
____________________________________________________________________________________________________
relu3_12_x2 (Activation)         (None, 128, 28, 28)   0           conv3_12_x2_scale[0][0]          
____________________________________________________________________________________________________
conv3_12_x2_zeropadding (ZeroPad (None, 128, 30, 30)   0           relu3_12_x2[0][0]                
____________________________________________________________________________________________________
conv3_12_x2 (Convolution2D)      (None, 32, 28, 28)    36864       conv3_12_x2_zeropadding[0][0]    
____________________________________________________________________________________________________
concat_3_12 (Merge)              (None, 512, 28, 28)   0           concat_3_11[0][0]                
                                                                   conv3_12_x2[0][0]                
____________________________________________________________________________________________________
conv3_blk_bn (BatchNormalization (None, 512, 28, 28)   2048        concat_3_12[0][0]                
____________________________________________________________________________________________________
conv3_blk_scale (Scale)          (None, 512, 28, 28)   1024        conv3_blk_bn[0][0]               
____________________________________________________________________________________________________
relu3_blk (Activation)           (None, 512, 28, 28)   0           conv3_blk_scale[0][0]            
____________________________________________________________________________________________________
conv3_blk (Convolution2D)        (None, 256, 28, 28)   131072      relu3_blk[0][0]                  
____________________________________________________________________________________________________
pool3 (AveragePooling2D)         (None, 256, 14, 14)   0           conv3_blk[0][0]                  
____________________________________________________________________________________________________
conv4_1_x1_bn (BatchNormalizatio (None, 256, 14, 14)   1024        pool3[0][0]                      
____________________________________________________________________________________________________
conv4_1_x1_scale (Scale)         (None, 256, 14, 14)   512         conv4_1_x1_bn[0][0]              
____________________________________________________________________________________________________
relu4_1_x1 (Activation)          (None, 256, 14, 14)   0           conv4_1_x1_scale[0][0]           
____________________________________________________________________________________________________
conv4_1_x1 (Convolution2D)       (None, 128, 14, 14)   32768       relu4_1_x1[0][0]                 
____________________________________________________________________________________________________
conv4_1_x2_bn (BatchNormalizatio (None, 128, 14, 14)   512         conv4_1_x1[0][0]                 
____________________________________________________________________________________________________
conv4_1_x2_scale (Scale)         (None, 128, 14, 14)   256         conv4_1_x2_bn[0][0]              
____________________________________________________________________________________________________
relu4_1_x2 (Activation)          (None, 128, 14, 14)   0           conv4_1_x2_scale[0][0]           
____________________________________________________________________________________________________
conv4_1_x2_zeropadding (ZeroPadd (None, 128, 16, 16)   0           relu4_1_x2[0][0]                 
____________________________________________________________________________________________________
conv4_1_x2 (Convolution2D)       (None, 32, 14, 14)    36864       conv4_1_x2_zeropadding[0][0]     
____________________________________________________________________________________________________
concat_4_1 (Merge)               (None, 288, 14, 14)   0           pool3[0][0]                      
                                                                   conv4_1_x2[0][0]                 
____________________________________________________________________________________________________
conv4_2_x1_bn (BatchNormalizatio (None, 288, 14, 14)   1152        concat_4_1[0][0]                 
____________________________________________________________________________________________________
conv4_2_x1_scale (Scale)         (None, 288, 14, 14)   576         conv4_2_x1_bn[0][0]              
____________________________________________________________________________________________________
relu4_2_x1 (Activation)          (None, 288, 14, 14)   0           conv4_2_x1_scale[0][0]           
____________________________________________________________________________________________________
conv4_2_x1 (Convolution2D)       (None, 128, 14, 14)   36864       relu4_2_x1[0][0]                 
____________________________________________________________________________________________________
conv4_2_x2_bn (BatchNormalizatio (None, 128, 14, 14)   512         conv4_2_x1[0][0]                 
____________________________________________________________________________________________________
conv4_2_x2_scale (Scale)         (None, 128, 14, 14)   256         conv4_2_x2_bn[0][0]              
____________________________________________________________________________________________________
relu4_2_x2 (Activation)          (None, 128, 14, 14)   0           conv4_2_x2_scale[0][0]           
____________________________________________________________________________________________________
conv4_2_x2_zeropadding (ZeroPadd (None, 128, 16, 16)   0           relu4_2_x2[0][0]                 
____________________________________________________________________________________________________
conv4_2_x2 (Convolution2D)       (None, 32, 14, 14)    36864       conv4_2_x2_zeropadding[0][0]     
____________________________________________________________________________________________________
concat_4_2 (Merge)               (None, 320, 14, 14)   0           concat_4_1[0][0]                 
                                                                   conv4_2_x2[0][0]                 
____________________________________________________________________________________________________
conv4_3_x1_bn (BatchNormalizatio (None, 320, 14, 14)   1280        concat_4_2[0][0]                 
____________________________________________________________________________________________________
conv4_3_x1_scale (Scale)         (None, 320, 14, 14)   640         conv4_3_x1_bn[0][0]              
____________________________________________________________________________________________________
relu4_3_x1 (Activation)          (None, 320, 14, 14)   0           conv4_3_x1_scale[0][0]           
____________________________________________________________________________________________________
conv4_3_x1 (Convolution2D)       (None, 128, 14, 14)   40960       relu4_3_x1[0][0]                 
____________________________________________________________________________________________________
conv4_3_x2_bn (BatchNormalizatio (None, 128, 14, 14)   512         conv4_3_x1[0][0]                 
____________________________________________________________________________________________________
conv4_3_x2_scale (Scale)         (None, 128, 14, 14)   256         conv4_3_x2_bn[0][0]              
____________________________________________________________________________________________________
relu4_3_x2 (Activation)          (None, 128, 14, 14)   0           conv4_3_x2_scale[0][0]           
____________________________________________________________________________________________________
conv4_3_x2_zeropadding (ZeroPadd (None, 128, 16, 16)   0           relu4_3_x2[0][0]                 
____________________________________________________________________________________________________
conv4_3_x2 (Convolution2D)       (None, 32, 14, 14)    36864       conv4_3_x2_zeropadding[0][0]     
____________________________________________________________________________________________________
concat_4_3 (Merge)               (None, 352, 14, 14)   0           concat_4_2[0][0]                 
                                                                   conv4_3_x2[0][0]                 
____________________________________________________________________________________________________
conv4_4_x1_bn (BatchNormalizatio (None, 352, 14, 14)   1408        concat_4_3[0][0]                 
____________________________________________________________________________________________________
conv4_4_x1_scale (Scale)         (None, 352, 14, 14)   704         conv4_4_x1_bn[0][0]              
____________________________________________________________________________________________________
relu4_4_x1 (Activation)          (None, 352, 14, 14)   0           conv4_4_x1_scale[0][0]           
____________________________________________________________________________________________________
conv4_4_x1 (Convolution2D)       (None, 128, 14, 14)   45056       relu4_4_x1[0][0]                 
____________________________________________________________________________________________________
conv4_4_x2_bn (BatchNormalizatio (None, 128, 14, 14)   512         conv4_4_x1[0][0]                 
____________________________________________________________________________________________________
conv4_4_x2_scale (Scale)         (None, 128, 14, 14)   256         conv4_4_x2_bn[0][0]              
____________________________________________________________________________________________________
relu4_4_x2 (Activation)          (None, 128, 14, 14)   0           conv4_4_x2_scale[0][0]           
____________________________________________________________________________________________________
conv4_4_x2_zeropadding (ZeroPadd (None, 128, 16, 16)   0           relu4_4_x2[0][0]                 
____________________________________________________________________________________________________
conv4_4_x2 (Convolution2D)       (None, 32, 14, 14)    36864       conv4_4_x2_zeropadding[0][0]     
____________________________________________________________________________________________________
concat_4_4 (Merge)               (None, 384, 14, 14)   0           concat_4_3[0][0]                 
                                                                   conv4_4_x2[0][0]                 
____________________________________________________________________________________________________
conv4_5_x1_bn (BatchNormalizatio (None, 384, 14, 14)   1536        concat_4_4[0][0]                 
____________________________________________________________________________________________________
conv4_5_x1_scale (Scale)         (None, 384, 14, 14)   768         conv4_5_x1_bn[0][0]              
____________________________________________________________________________________________________
relu4_5_x1 (Activation)          (None, 384, 14, 14)   0           conv4_5_x1_scale[0][0]           
____________________________________________________________________________________________________
conv4_5_x1 (Convolution2D)       (None, 128, 14, 14)   49152       relu4_5_x1[0][0]                 
____________________________________________________________________________________________________
conv4_5_x2_bn (BatchNormalizatio (None, 128, 14, 14)   512         conv4_5_x1[0][0]                 
____________________________________________________________________________________________________
conv4_5_x2_scale (Scale)         (None, 128, 14, 14)   256         conv4_5_x2_bn[0][0]              
____________________________________________________________________________________________________
relu4_5_x2 (Activation)          (None, 128, 14, 14)   0           conv4_5_x2_scale[0][0]           
____________________________________________________________________________________________________
conv4_5_x2_zeropadding (ZeroPadd (None, 128, 16, 16)   0           relu4_5_x2[0][0]                 
____________________________________________________________________________________________________
conv4_5_x2 (Convolution2D)       (None, 32, 14, 14)    36864       conv4_5_x2_zeropadding[0][0]     
____________________________________________________________________________________________________
concat_4_5 (Merge)               (None, 416, 14, 14)   0           concat_4_4[0][0]                 
                                                                   conv4_5_x2[0][0]                 
____________________________________________________________________________________________________
conv4_6_x1_bn (BatchNormalizatio (None, 416, 14, 14)   1664        concat_4_5[0][0]                 
____________________________________________________________________________________________________
conv4_6_x1_scale (Scale)         (None, 416, 14, 14)   832         conv4_6_x1_bn[0][0]              
____________________________________________________________________________________________________
relu4_6_x1 (Activation)          (None, 416, 14, 14)   0           conv4_6_x1_scale[0][0]           
____________________________________________________________________________________________________
conv4_6_x1 (Convolution2D)       (None, 128, 14, 14)   53248       relu4_6_x1[0][0]                 
____________________________________________________________________________________________________
conv4_6_x2_bn (BatchNormalizatio (None, 128, 14, 14)   512         conv4_6_x1[0][0]                 
____________________________________________________________________________________________________
conv4_6_x2_scale (Scale)         (None, 128, 14, 14)   256         conv4_6_x2_bn[0][0]              
____________________________________________________________________________________________________
relu4_6_x2 (Activation)          (None, 128, 14, 14)   0           conv4_6_x2_scale[0][0]           
____________________________________________________________________________________________________
conv4_6_x2_zeropadding (ZeroPadd (None, 128, 16, 16)   0           relu4_6_x2[0][0]                 
____________________________________________________________________________________________________
conv4_6_x2 (Convolution2D)       (None, 32, 14, 14)    36864       conv4_6_x2_zeropadding[0][0]     
____________________________________________________________________________________________________
concat_4_6 (Merge)               (None, 448, 14, 14)   0           concat_4_5[0][0]                 
                                                                   conv4_6_x2[0][0]                 
____________________________________________________________________________________________________
conv4_7_x1_bn (BatchNormalizatio (None, 448, 14, 14)   1792        concat_4_6[0][0]                 
____________________________________________________________________________________________________
conv4_7_x1_scale (Scale)         (None, 448, 14, 14)   896         conv4_7_x1_bn[0][0]              
____________________________________________________________________________________________________
relu4_7_x1 (Activation)          (None, 448, 14, 14)   0           conv4_7_x1_scale[0][0]           
____________________________________________________________________________________________________
conv4_7_x1 (Convolution2D)       (None, 128, 14, 14)   57344       relu4_7_x1[0][0]                 
____________________________________________________________________________________________________
conv4_7_x2_bn (BatchNormalizatio (None, 128, 14, 14)   512         conv4_7_x1[0][0]                 
____________________________________________________________________________________________________
conv4_7_x2_scale (Scale)         (None, 128, 14, 14)   256         conv4_7_x2_bn[0][0]              
____________________________________________________________________________________________________
relu4_7_x2 (Activation)          (None, 128, 14, 14)   0           conv4_7_x2_scale[0][0]           
____________________________________________________________________________________________________
conv4_7_x2_zeropadding (ZeroPadd (None, 128, 16, 16)   0           relu4_7_x2[0][0]                 
____________________________________________________________________________________________________
conv4_7_x2 (Convolution2D)       (None, 32, 14, 14)    36864       conv4_7_x2_zeropadding[0][0]     
____________________________________________________________________________________________________
concat_4_7 (Merge)               (None, 480, 14, 14)   0           concat_4_6[0][0]                 
                                                                   conv4_7_x2[0][0]                 
____________________________________________________________________________________________________
conv4_8_x1_bn (BatchNormalizatio (None, 480, 14, 14)   1920        concat_4_7[0][0]                 
____________________________________________________________________________________________________
conv4_8_x1_scale (Scale)         (None, 480, 14, 14)   960         conv4_8_x1_bn[0][0]              
____________________________________________________________________________________________________
relu4_8_x1 (Activation)          (None, 480, 14, 14)   0           conv4_8_x1_scale[0][0]           
____________________________________________________________________________________________________
conv4_8_x1 (Convolution2D)       (None, 128, 14, 14)   61440       relu4_8_x1[0][0]                 
____________________________________________________________________________________________________
conv4_8_x2_bn (BatchNormalizatio (None, 128, 14, 14)   512         conv4_8_x1[0][0]                 
____________________________________________________________________________________________________
conv4_8_x2_scale (Scale)         (None, 128, 14, 14)   256         conv4_8_x2_bn[0][0]              
____________________________________________________________________________________________________
relu4_8_x2 (Activation)          (None, 128, 14, 14)   0           conv4_8_x2_scale[0][0]           
____________________________________________________________________________________________________
conv4_8_x2_zeropadding (ZeroPadd (None, 128, 16, 16)   0           relu4_8_x2[0][0]                 
____________________________________________________________________________________________________
conv4_8_x2 (Convolution2D)       (None, 32, 14, 14)    36864       conv4_8_x2_zeropadding[0][0]     
____________________________________________________________________________________________________
concat_4_8 (Merge)               (None, 512, 14, 14)   0           concat_4_7[0][0]                 
                                                                   conv4_8_x2[0][0]                 
____________________________________________________________________________________________________
conv4_9_x1_bn (BatchNormalizatio (None, 512, 14, 14)   2048        concat_4_8[0][0]                 
____________________________________________________________________________________________________
conv4_9_x1_scale (Scale)         (None, 512, 14, 14)   1024        conv4_9_x1_bn[0][0]              
____________________________________________________________________________________________________
relu4_9_x1 (Activation)          (None, 512, 14, 14)   0           conv4_9_x1_scale[0][0]           
____________________________________________________________________________________________________
conv4_9_x1 (Convolution2D)       (None, 128, 14, 14)   65536       relu4_9_x1[0][0]                 
____________________________________________________________________________________________________
conv4_9_x2_bn (BatchNormalizatio (None, 128, 14, 14)   512         conv4_9_x1[0][0]                 
____________________________________________________________________________________________________
conv4_9_x2_scale (Scale)         (None, 128, 14, 14)   256         conv4_9_x2_bn[0][0]              
____________________________________________________________________________________________________
relu4_9_x2 (Activation)          (None, 128, 14, 14)   0           conv4_9_x2_scale[0][0]           
____________________________________________________________________________________________________
conv4_9_x2_zeropadding (ZeroPadd (None, 128, 16, 16)   0           relu4_9_x2[0][0]                 
____________________________________________________________________________________________________
conv4_9_x2 (Convolution2D)       (None, 32, 14, 14)    36864       conv4_9_x2_zeropadding[0][0]     
____________________________________________________________________________________________________
concat_4_9 (Merge)               (None, 544, 14, 14)   0           concat_4_8[0][0]                 
                                                                   conv4_9_x2[0][0]                 
____________________________________________________________________________________________________
conv4_10_x1_bn (BatchNormalizati (None, 544, 14, 14)   2176        concat_4_9[0][0]                 
____________________________________________________________________________________________________
conv4_10_x1_scale (Scale)        (None, 544, 14, 14)   1088        conv4_10_x1_bn[0][0]             
____________________________________________________________________________________________________
relu4_10_x1 (Activation)         (None, 544, 14, 14)   0           conv4_10_x1_scale[0][0]          
____________________________________________________________________________________________________
conv4_10_x1 (Convolution2D)      (None, 128, 14, 14)   69632       relu4_10_x1[0][0]                
____________________________________________________________________________________________________
conv4_10_x2_bn (BatchNormalizati (None, 128, 14, 14)   512         conv4_10_x1[0][0]                
____________________________________________________________________________________________________
conv4_10_x2_scale (Scale)        (None, 128, 14, 14)   256         conv4_10_x2_bn[0][0]             
____________________________________________________________________________________________________
relu4_10_x2 (Activation)         (None, 128, 14, 14)   0           conv4_10_x2_scale[0][0]          
____________________________________________________________________________________________________
conv4_10_x2_zeropadding (ZeroPad (None, 128, 16, 16)   0           relu4_10_x2[0][0]                
____________________________________________________________________________________________________
conv4_10_x2 (Convolution2D)      (None, 32, 14, 14)    36864       conv4_10_x2_zeropadding[0][0]    
____________________________________________________________________________________________________
concat_4_10 (Merge)              (None, 576, 14, 14)   0           concat_4_9[0][0]                 
                                                                   conv4_10_x2[0][0]                
____________________________________________________________________________________________________
conv4_11_x1_bn (BatchNormalizati (None, 576, 14, 14)   2304        concat_4_10[0][0]                
____________________________________________________________________________________________________
conv4_11_x1_scale (Scale)        (None, 576, 14, 14)   1152        conv4_11_x1_bn[0][0]             
____________________________________________________________________________________________________
relu4_11_x1 (Activation)         (None, 576, 14, 14)   0           conv4_11_x1_scale[0][0]          
____________________________________________________________________________________________________
conv4_11_x1 (Convolution2D)      (None, 128, 14, 14)   73728       relu4_11_x1[0][0]                
____________________________________________________________________________________________________
conv4_11_x2_bn (BatchNormalizati (None, 128, 14, 14)   512         conv4_11_x1[0][0]                
____________________________________________________________________________________________________
conv4_11_x2_scale (Scale)        (None, 128, 14, 14)   256         conv4_11_x2_bn[0][0]             
____________________________________________________________________________________________________
relu4_11_x2 (Activation)         (None, 128, 14, 14)   0           conv4_11_x2_scale[0][0]          
____________________________________________________________________________________________________
conv4_11_x2_zeropadding (ZeroPad (None, 128, 16, 16)   0           relu4_11_x2[0][0]                
____________________________________________________________________________________________________
conv4_11_x2 (Convolution2D)      (None, 32, 14, 14)    36864       conv4_11_x2_zeropadding[0][0]    
____________________________________________________________________________________________________
concat_4_11 (Merge)              (None, 608, 14, 14)   0           concat_4_10[0][0]                
                                                                   conv4_11_x2[0][0]                
____________________________________________________________________________________________________
conv4_12_x1_bn (BatchNormalizati (None, 608, 14, 14)   2432        concat_4_11[0][0]                
____________________________________________________________________________________________________
conv4_12_x1_scale (Scale)        (None, 608, 14, 14)   1216        conv4_12_x1_bn[0][0]             
____________________________________________________________________________________________________
relu4_12_x1 (Activation)         (None, 608, 14, 14)   0           conv4_12_x1_scale[0][0]          
____________________________________________________________________________________________________
conv4_12_x1 (Convolution2D)      (None, 128, 14, 14)   77824       relu4_12_x1[0][0]                
____________________________________________________________________________________________________
conv4_12_x2_bn (BatchNormalizati (None, 128, 14, 14)   512         conv4_12_x1[0][0]                
____________________________________________________________________________________________________
conv4_12_x2_scale (Scale)        (None, 128, 14, 14)   256         conv4_12_x2_bn[0][0]             
____________________________________________________________________________________________________
relu4_12_x2 (Activation)         (None, 128, 14, 14)   0           conv4_12_x2_scale[0][0]          
____________________________________________________________________________________________________
conv4_12_x2_zeropadding (ZeroPad (None, 128, 16, 16)   0           relu4_12_x2[0][0]                
____________________________________________________________________________________________________
conv4_12_x2 (Convolution2D)      (None, 32, 14, 14)    36864       conv4_12_x2_zeropadding[0][0]    
____________________________________________________________________________________________________
concat_4_12 (Merge)              (None, 640, 14, 14)   0           concat_4_11[0][0]                
                                                                   conv4_12_x2[0][0]                
____________________________________________________________________________________________________
conv4_13_x1_bn (BatchNormalizati (None, 640, 14, 14)   2560        concat_4_12[0][0]                
____________________________________________________________________________________________________
conv4_13_x1_scale (Scale)        (None, 640, 14, 14)   1280        conv4_13_x1_bn[0][0]             
____________________________________________________________________________________________________
relu4_13_x1 (Activation)         (None, 640, 14, 14)   0           conv4_13_x1_scale[0][0]          
____________________________________________________________________________________________________
conv4_13_x1 (Convolution2D)      (None, 128, 14, 14)   81920       relu4_13_x1[0][0]                
____________________________________________________________________________________________________
conv4_13_x2_bn (BatchNormalizati (None, 128, 14, 14)   512         conv4_13_x1[0][0]                
____________________________________________________________________________________________________
conv4_13_x2_scale (Scale)        (None, 128, 14, 14)   256         conv4_13_x2_bn[0][0]             
____________________________________________________________________________________________________
relu4_13_x2 (Activation)         (None, 128, 14, 14)   0           conv4_13_x2_scale[0][0]          
____________________________________________________________________________________________________
conv4_13_x2_zeropadding (ZeroPad (None, 128, 16, 16)   0           relu4_13_x2[0][0]                
____________________________________________________________________________________________________
conv4_13_x2 (Convolution2D)      (None, 32, 14, 14)    36864       conv4_13_x2_zeropadding[0][0]    
____________________________________________________________________________________________________
concat_4_13 (Merge)              (None, 672, 14, 14)   0           concat_4_12[0][0]                
                                                                   conv4_13_x2[0][0]                
____________________________________________________________________________________________________
conv4_14_x1_bn (BatchNormalizati (None, 672, 14, 14)   2688        concat_4_13[0][0]                
____________________________________________________________________________________________________
conv4_14_x1_scale (Scale)        (None, 672, 14, 14)   1344        conv4_14_x1_bn[0][0]             
____________________________________________________________________________________________________
relu4_14_x1 (Activation)         (None, 672, 14, 14)   0           conv4_14_x1_scale[0][0]          
____________________________________________________________________________________________________
conv4_14_x1 (Convolution2D)      (None, 128, 14, 14)   86016       relu4_14_x1[0][0]                
____________________________________________________________________________________________________
conv4_14_x2_bn (BatchNormalizati (None, 128, 14, 14)   512         conv4_14_x1[0][0]                
____________________________________________________________________________________________________
conv4_14_x2_scale (Scale)        (None, 128, 14, 14)   256         conv4_14_x2_bn[0][0]             
____________________________________________________________________________________________________
relu4_14_x2 (Activation)         (None, 128, 14, 14)   0           conv4_14_x2_scale[0][0]          
____________________________________________________________________________________________________
conv4_14_x2_zeropadding (ZeroPad (None, 128, 16, 16)   0           relu4_14_x2[0][0]                
____________________________________________________________________________________________________
conv4_14_x2 (Convolution2D)      (None, 32, 14, 14)    36864       conv4_14_x2_zeropadding[0][0]    
____________________________________________________________________________________________________
concat_4_14 (Merge)              (None, 704, 14, 14)   0           concat_4_13[0][0]                
                                                                   conv4_14_x2[0][0]                
____________________________________________________________________________________________________
conv4_15_x1_bn (BatchNormalizati (None, 704, 14, 14)   2816        concat_4_14[0][0]                
____________________________________________________________________________________________________
conv4_15_x1_scale (Scale)        (None, 704, 14, 14)   1408        conv4_15_x1_bn[0][0]             
____________________________________________________________________________________________________
relu4_15_x1 (Activation)         (None, 704, 14, 14)   0           conv4_15_x1_scale[0][0]          
____________________________________________________________________________________________________
conv4_15_x1 (Convolution2D)      (None, 128, 14, 14)   90112       relu4_15_x1[0][0]                
____________________________________________________________________________________________________
conv4_15_x2_bn (BatchNormalizati (None, 128, 14, 14)   512         conv4_15_x1[0][0]                
____________________________________________________________________________________________________
conv4_15_x2_scale (Scale)        (None, 128, 14, 14)   256         conv4_15_x2_bn[0][0]             
____________________________________________________________________________________________________
relu4_15_x2 (Activation)         (None, 128, 14, 14)   0           conv4_15_x2_scale[0][0]          
____________________________________________________________________________________________________
conv4_15_x2_zeropadding (ZeroPad (None, 128, 16, 16)   0           relu4_15_x2[0][0]                
____________________________________________________________________________________________________
conv4_15_x2 (Convolution2D)      (None, 32, 14, 14)    36864       conv4_15_x2_zeropadding[0][0]    
____________________________________________________________________________________________________
concat_4_15 (Merge)              (None, 736, 14, 14)   0           concat_4_14[0][0]                
                                                                   conv4_15_x2[0][0]                
____________________________________________________________________________________________________
conv4_16_x1_bn (BatchNormalizati (None, 736, 14, 14)   2944        concat_4_15[0][0]                
____________________________________________________________________________________________________
conv4_16_x1_scale (Scale)        (None, 736, 14, 14)   1472        conv4_16_x1_bn[0][0]             
____________________________________________________________________________________________________
relu4_16_x1 (Activation)         (None, 736, 14, 14)   0           conv4_16_x1_scale[0][0]          
____________________________________________________________________________________________________
conv4_16_x1 (Convolution2D)      (None, 128, 14, 14)   94208       relu4_16_x1[0][0]                
____________________________________________________________________________________________________
conv4_16_x2_bn (BatchNormalizati (None, 128, 14, 14)   512         conv4_16_x1[0][0]                
____________________________________________________________________________________________________
conv4_16_x2_scale (Scale)        (None, 128, 14, 14)   256         conv4_16_x2_bn[0][0]             
____________________________________________________________________________________________________
relu4_16_x2 (Activation)         (None, 128, 14, 14)   0           conv4_16_x2_scale[0][0]          
____________________________________________________________________________________________________
conv4_16_x2_zeropadding (ZeroPad (None, 128, 16, 16)   0           relu4_16_x2[0][0]                
____________________________________________________________________________________________________
conv4_16_x2 (Convolution2D)      (None, 32, 14, 14)    36864       conv4_16_x2_zeropadding[0][0]    
____________________________________________________________________________________________________
concat_4_16 (Merge)              (None, 768, 14, 14)   0           concat_4_15[0][0]                
                                                                   conv4_16_x2[0][0]                
____________________________________________________________________________________________________
conv4_17_x1_bn (BatchNormalizati (None, 768, 14, 14)   3072        concat_4_16[0][0]                
____________________________________________________________________________________________________
conv4_17_x1_scale (Scale)        (None, 768, 14, 14)   1536        conv4_17_x1_bn[0][0]             
____________________________________________________________________________________________________
relu4_17_x1 (Activation)         (None, 768, 14, 14)   0           conv4_17_x1_scale[0][0]          
____________________________________________________________________________________________________
conv4_17_x1 (Convolution2D)      (None, 128, 14, 14)   98304       relu4_17_x1[0][0]                
____________________________________________________________________________________________________
conv4_17_x2_bn (BatchNormalizati (None, 128, 14, 14)   512         conv4_17_x1[0][0]                
____________________________________________________________________________________________________
conv4_17_x2_scale (Scale)        (None, 128, 14, 14)   256         conv4_17_x2_bn[0][0]             
____________________________________________________________________________________________________
relu4_17_x2 (Activation)         (None, 128, 14, 14)   0           conv4_17_x2_scale[0][0]          
____________________________________________________________________________________________________
conv4_17_x2_zeropadding (ZeroPad (None, 128, 16, 16)   0           relu4_17_x2[0][0]                
____________________________________________________________________________________________________
conv4_17_x2 (Convolution2D)      (None, 32, 14, 14)    36864       conv4_17_x2_zeropadding[0][0]    
____________________________________________________________________________________________________
concat_4_17 (Merge)              (None, 800, 14, 14)   0           concat_4_16[0][0]                
                                                                   conv4_17_x2[0][0]                
____________________________________________________________________________________________________
conv4_18_x1_bn (BatchNormalizati (None, 800, 14, 14)   3200        concat_4_17[0][0]                
____________________________________________________________________________________________________
conv4_18_x1_scale (Scale)        (None, 800, 14, 14)   1600        conv4_18_x1_bn[0][0]             
____________________________________________________________________________________________________
relu4_18_x1 (Activation)         (None, 800, 14, 14)   0           conv4_18_x1_scale[0][0]          
____________________________________________________________________________________________________
conv4_18_x1 (Convolution2D)      (None, 128, 14, 14)   102400      relu4_18_x1[0][0]                
____________________________________________________________________________________________________
conv4_18_x2_bn (BatchNormalizati (None, 128, 14, 14)   512         conv4_18_x1[0][0]                
____________________________________________________________________________________________________
conv4_18_x2_scale (Scale)        (None, 128, 14, 14)   256         conv4_18_x2_bn[0][0]             
____________________________________________________________________________________________________
relu4_18_x2 (Activation)         (None, 128, 14, 14)   0           conv4_18_x2_scale[0][0]          
____________________________________________________________________________________________________
conv4_18_x2_zeropadding (ZeroPad (None, 128, 16, 16)   0           relu4_18_x2[0][0]                
____________________________________________________________________________________________________
conv4_18_x2 (Convolution2D)      (None, 32, 14, 14)    36864       conv4_18_x2_zeropadding[0][0]    
____________________________________________________________________________________________________
concat_4_18 (Merge)              (None, 832, 14, 14)   0           concat_4_17[0][0]                
                                                                   conv4_18_x2[0][0]                
____________________________________________________________________________________________________
conv4_19_x1_bn (BatchNormalizati (None, 832, 14, 14)   3328        concat_4_18[0][0]                
____________________________________________________________________________________________________
conv4_19_x1_scale (Scale)        (None, 832, 14, 14)   1664        conv4_19_x1_bn[0][0]             
____________________________________________________________________________________________________
relu4_19_x1 (Activation)         (None, 832, 14, 14)   0           conv4_19_x1_scale[0][0]          
____________________________________________________________________________________________________
conv4_19_x1 (Convolution2D)      (None, 128, 14, 14)   106496      relu4_19_x1[0][0]                
____________________________________________________________________________________________________
conv4_19_x2_bn (BatchNormalizati (None, 128, 14, 14)   512         conv4_19_x1[0][0]                
____________________________________________________________________________________________________
conv4_19_x2_scale (Scale)        (None, 128, 14, 14)   256         conv4_19_x2_bn[0][0]             
____________________________________________________________________________________________________
relu4_19_x2 (Activation)         (None, 128, 14, 14)   0           conv4_19_x2_scale[0][0]          
____________________________________________________________________________________________________
conv4_19_x2_zeropadding (ZeroPad (None, 128, 16, 16)   0           relu4_19_x2[0][0]                
____________________________________________________________________________________________________
conv4_19_x2 (Convolution2D)      (None, 32, 14, 14)    36864       conv4_19_x2_zeropadding[0][0]    
____________________________________________________________________________________________________
concat_4_19 (Merge)              (None, 864, 14, 14)   0           concat_4_18[0][0]                
                                                                   conv4_19_x2[0][0]                
____________________________________________________________________________________________________
conv4_20_x1_bn (BatchNormalizati (None, 864, 14, 14)   3456        concat_4_19[0][0]                
____________________________________________________________________________________________________
conv4_20_x1_scale (Scale)        (None, 864, 14, 14)   1728        conv4_20_x1_bn[0][0]             
____________________________________________________________________________________________________
relu4_20_x1 (Activation)         (None, 864, 14, 14)   0           conv4_20_x1_scale[0][0]          
____________________________________________________________________________________________________
conv4_20_x1 (Convolution2D)      (None, 128, 14, 14)   110592      relu4_20_x1[0][0]                
____________________________________________________________________________________________________
conv4_20_x2_bn (BatchNormalizati (None, 128, 14, 14)   512         conv4_20_x1[0][0]                
____________________________________________________________________________________________________
conv4_20_x2_scale (Scale)        (None, 128, 14, 14)   256         conv4_20_x2_bn[0][0]             
____________________________________________________________________________________________________
relu4_20_x2 (Activation)         (None, 128, 14, 14)   0           conv4_20_x2_scale[0][0]          
____________________________________________________________________________________________________
conv4_20_x2_zeropadding (ZeroPad (None, 128, 16, 16)   0           relu4_20_x2[0][0]                
____________________________________________________________________________________________________
conv4_20_x2 (Convolution2D)      (None, 32, 14, 14)    36864       conv4_20_x2_zeropadding[0][0]    
____________________________________________________________________________________________________
concat_4_20 (Merge)              (None, 896, 14, 14)   0           concat_4_19[0][0]                
                                                                   conv4_20_x2[0][0]                
____________________________________________________________________________________________________
conv4_21_x1_bn (BatchNormalizati (None, 896, 14, 14)   3584        concat_4_20[0][0]                
____________________________________________________________________________________________________
conv4_21_x1_scale (Scale)        (None, 896, 14, 14)   1792        conv4_21_x1_bn[0][0]             
____________________________________________________________________________________________________
relu4_21_x1 (Activation)         (None, 896, 14, 14)   0           conv4_21_x1_scale[0][0]          
____________________________________________________________________________________________________
conv4_21_x1 (Convolution2D)      (None, 128, 14, 14)   114688      relu4_21_x1[0][0]                
____________________________________________________________________________________________________
conv4_21_x2_bn (BatchNormalizati (None, 128, 14, 14)   512         conv4_21_x1[0][0]                
____________________________________________________________________________________________________
conv4_21_x2_scale (Scale)        (None, 128, 14, 14)   256         conv4_21_x2_bn[0][0]             
____________________________________________________________________________________________________
relu4_21_x2 (Activation)         (None, 128, 14, 14)   0           conv4_21_x2_scale[0][0]          
____________________________________________________________________________________________________
conv4_21_x2_zeropadding (ZeroPad (None, 128, 16, 16)   0           relu4_21_x2[0][0]                
____________________________________________________________________________________________________
conv4_21_x2 (Convolution2D)      (None, 32, 14, 14)    36864       conv4_21_x2_zeropadding[0][0]    
____________________________________________________________________________________________________
concat_4_21 (Merge)              (None, 928, 14, 14)   0           concat_4_20[0][0]                
                                                                   conv4_21_x2[0][0]                
____________________________________________________________________________________________________
conv4_22_x1_bn (BatchNormalizati (None, 928, 14, 14)   3712        concat_4_21[0][0]                
____________________________________________________________________________________________________
conv4_22_x1_scale (Scale)        (None, 928, 14, 14)   1856        conv4_22_x1_bn[0][0]             
____________________________________________________________________________________________________
relu4_22_x1 (Activation)         (None, 928, 14, 14)   0           conv4_22_x1_scale[0][0]          
____________________________________________________________________________________________________
conv4_22_x1 (Convolution2D)      (None, 128, 14, 14)   118784      relu4_22_x1[0][0]                
____________________________________________________________________________________________________
conv4_22_x2_bn (BatchNormalizati (None, 128, 14, 14)   512         conv4_22_x1[0][0]                
____________________________________________________________________________________________________
conv4_22_x2_scale (Scale)        (None, 128, 14, 14)   256         conv4_22_x2_bn[0][0]             
____________________________________________________________________________________________________
relu4_22_x2 (Activation)         (None, 128, 14, 14)   0           conv4_22_x2_scale[0][0]          
____________________________________________________________________________________________________
conv4_22_x2_zeropadding (ZeroPad (None, 128, 16, 16)   0           relu4_22_x2[0][0]                
____________________________________________________________________________________________________
conv4_22_x2 (Convolution2D)      (None, 32, 14, 14)    36864       conv4_22_x2_zeropadding[0][0]    
____________________________________________________________________________________________________
concat_4_22 (Merge)              (None, 960, 14, 14)   0           concat_4_21[0][0]                
                                                                   conv4_22_x2[0][0]                
____________________________________________________________________________________________________
conv4_23_x1_bn (BatchNormalizati (None, 960, 14, 14)   3840        concat_4_22[0][0]                
____________________________________________________________________________________________________
conv4_23_x1_scale (Scale)        (None, 960, 14, 14)   1920        conv4_23_x1_bn[0][0]             
____________________________________________________________________________________________________
relu4_23_x1 (Activation)         (None, 960, 14, 14)   0           conv4_23_x1_scale[0][0]          
____________________________________________________________________________________________________
conv4_23_x1 (Convolution2D)      (None, 128, 14, 14)   122880      relu4_23_x1[0][0]                
____________________________________________________________________________________________________
conv4_23_x2_bn (BatchNormalizati (None, 128, 14, 14)   512         conv4_23_x1[0][0]                
____________________________________________________________________________________________________
conv4_23_x2_scale (Scale)        (None, 128, 14, 14)   256         conv4_23_x2_bn[0][0]             
____________________________________________________________________________________________________
relu4_23_x2 (Activation)         (None, 128, 14, 14)   0           conv4_23_x2_scale[0][0]          
____________________________________________________________________________________________________
conv4_23_x2_zeropadding (ZeroPad (None, 128, 16, 16)   0           relu4_23_x2[0][0]                
____________________________________________________________________________________________________
conv4_23_x2 (Convolution2D)      (None, 32, 14, 14)    36864       conv4_23_x2_zeropadding[0][0]    
____________________________________________________________________________________________________
concat_4_23 (Merge)              (None, 992, 14, 14)   0           concat_4_22[0][0]                
                                                                   conv4_23_x2[0][0]                
____________________________________________________________________________________________________
conv4_24_x1_bn (BatchNormalizati (None, 992, 14, 14)   3968        concat_4_23[0][0]                
____________________________________________________________________________________________________
conv4_24_x1_scale (Scale)        (None, 992, 14, 14)   1984        conv4_24_x1_bn[0][0]             
____________________________________________________________________________________________________
relu4_24_x1 (Activation)         (None, 992, 14, 14)   0           conv4_24_x1_scale[0][0]          
____________________________________________________________________________________________________
conv4_24_x1 (Convolution2D)      (None, 128, 14, 14)   126976      relu4_24_x1[0][0]                
____________________________________________________________________________________________________
conv4_24_x2_bn (BatchNormalizati (None, 128, 14, 14)   512         conv4_24_x1[0][0]                
____________________________________________________________________________________________________
conv4_24_x2_scale (Scale)        (None, 128, 14, 14)   256         conv4_24_x2_bn[0][0]             
____________________________________________________________________________________________________
relu4_24_x2 (Activation)         (None, 128, 14, 14)   0           conv4_24_x2_scale[0][0]          
____________________________________________________________________________________________________
conv4_24_x2_zeropadding (ZeroPad (None, 128, 16, 16)   0           relu4_24_x2[0][0]                
____________________________________________________________________________________________________
conv4_24_x2 (Convolution2D)      (None, 32, 14, 14)    36864       conv4_24_x2_zeropadding[0][0]    
____________________________________________________________________________________________________
concat_4_24 (Merge)              (None, 1024, 14, 14)  0           concat_4_23[0][0]                
                                                                   conv4_24_x2[0][0]                
____________________________________________________________________________________________________
conv4_blk_bn (BatchNormalization (None, 1024, 14, 14)  4096        concat_4_24[0][0]                
____________________________________________________________________________________________________
conv4_blk_scale (Scale)          (None, 1024, 14, 14)  2048        conv4_blk_bn[0][0]               
____________________________________________________________________________________________________
relu4_blk (Activation)           (None, 1024, 14, 14)  0           conv4_blk_scale[0][0]            
____________________________________________________________________________________________________
conv4_blk (Convolution2D)        (None, 512, 14, 14)   524288      relu4_blk[0][0]                  
____________________________________________________________________________________________________
pool4 (AveragePooling2D)         (None, 512, 7, 7)     0           conv4_blk[0][0]                  
____________________________________________________________________________________________________
conv5_1_x1_bn (BatchNormalizatio (None, 512, 7, 7)     2048        pool4[0][0]                      
____________________________________________________________________________________________________
conv5_1_x1_scale (Scale)         (None, 512, 7, 7)     1024        conv5_1_x1_bn[0][0]              
____________________________________________________________________________________________________
relu5_1_x1 (Activation)          (None, 512, 7, 7)     0           conv5_1_x1_scale[0][0]           
____________________________________________________________________________________________________
conv5_1_x1 (Convolution2D)       (None, 128, 7, 7)     65536       relu5_1_x1[0][0]                 
____________________________________________________________________________________________________
conv5_1_x2_bn (BatchNormalizatio (None, 128, 7, 7)     512         conv5_1_x1[0][0]                 
____________________________________________________________________________________________________
conv5_1_x2_scale (Scale)         (None, 128, 7, 7)     256         conv5_1_x2_bn[0][0]              
____________________________________________________________________________________________________
relu5_1_x2 (Activation)          (None, 128, 7, 7)     0           conv5_1_x2_scale[0][0]           
____________________________________________________________________________________________________
conv5_1_x2_zeropadding (ZeroPadd (None, 128, 9, 9)     0           relu5_1_x2[0][0]                 
____________________________________________________________________________________________________
conv5_1_x2 (Convolution2D)       (None, 32, 7, 7)      36864       conv5_1_x2_zeropadding[0][0]     
____________________________________________________________________________________________________
concat_5_1 (Merge)               (None, 544, 7, 7)     0           pool4[0][0]                      
                                                                   conv5_1_x2[0][0]                 
____________________________________________________________________________________________________
conv5_2_x1_bn (BatchNormalizatio (None, 544, 7, 7)     2176        concat_5_1[0][0]                 
____________________________________________________________________________________________________
conv5_2_x1_scale (Scale)         (None, 544, 7, 7)     1088        conv5_2_x1_bn[0][0]              
____________________________________________________________________________________________________
relu5_2_x1 (Activation)          (None, 544, 7, 7)     0           conv5_2_x1_scale[0][0]           
____________________________________________________________________________________________________
conv5_2_x1 (Convolution2D)       (None, 128, 7, 7)     69632       relu5_2_x1[0][0]                 
____________________________________________________________________________________________________
conv5_2_x2_bn (BatchNormalizatio (None, 128, 7, 7)     512         conv5_2_x1[0][0]                 
____________________________________________________________________________________________________
conv5_2_x2_scale (Scale)         (None, 128, 7, 7)     256         conv5_2_x2_bn[0][0]              
____________________________________________________________________________________________________
relu5_2_x2 (Activation)          (None, 128, 7, 7)     0           conv5_2_x2_scale[0][0]           
____________________________________________________________________________________________________
conv5_2_x2_zeropadding (ZeroPadd (None, 128, 9, 9)     0           relu5_2_x2[0][0]                 
____________________________________________________________________________________________________
conv5_2_x2 (Convolution2D)       (None, 32, 7, 7)      36864       conv5_2_x2_zeropadding[0][0]     
____________________________________________________________________________________________________
concat_5_2 (Merge)               (None, 576, 7, 7)     0           concat_5_1[0][0]                 
                                                                   conv5_2_x2[0][0]                 
____________________________________________________________________________________________________
conv5_3_x1_bn (BatchNormalizatio (None, 576, 7, 7)     2304        concat_5_2[0][0]                 
____________________________________________________________________________________________________
conv5_3_x1_scale (Scale)         (None, 576, 7, 7)     1152        conv5_3_x1_bn[0][0]              
____________________________________________________________________________________________________
relu5_3_x1 (Activation)          (None, 576, 7, 7)     0           conv5_3_x1_scale[0][0]           
____________________________________________________________________________________________________
conv5_3_x1 (Convolution2D)       (None, 128, 7, 7)     73728       relu5_3_x1[0][0]                 
____________________________________________________________________________________________________
conv5_3_x2_bn (BatchNormalizatio (None, 128, 7, 7)     512         conv5_3_x1[0][0]                 
____________________________________________________________________________________________________
conv5_3_x2_scale (Scale)         (None, 128, 7, 7)     256         conv5_3_x2_bn[0][0]              
____________________________________________________________________________________________________
relu5_3_x2 (Activation)          (None, 128, 7, 7)     0           conv5_3_x2_scale[0][0]           
____________________________________________________________________________________________________
conv5_3_x2_zeropadding (ZeroPadd (None, 128, 9, 9)     0           relu5_3_x2[0][0]                 
____________________________________________________________________________________________________
conv5_3_x2 (Convolution2D)       (None, 32, 7, 7)      36864       conv5_3_x2_zeropadding[0][0]     
____________________________________________________________________________________________________
concat_5_3 (Merge)               (None, 608, 7, 7)     0           concat_5_2[0][0]                 
                                                                   conv5_3_x2[0][0]                 
____________________________________________________________________________________________________
conv5_4_x1_bn (BatchNormalizatio (None, 608, 7, 7)     2432        concat_5_3[0][0]                 
____________________________________________________________________________________________________
conv5_4_x1_scale (Scale)         (None, 608, 7, 7)     1216        conv5_4_x1_bn[0][0]              
____________________________________________________________________________________________________
relu5_4_x1 (Activation)          (None, 608, 7, 7)     0           conv5_4_x1_scale[0][0]           
____________________________________________________________________________________________________
conv5_4_x1 (Convolution2D)       (None, 128, 7, 7)     77824       relu5_4_x1[0][0]                 
____________________________________________________________________________________________________
conv5_4_x2_bn (BatchNormalizatio (None, 128, 7, 7)     512         conv5_4_x1[0][0]                 
____________________________________________________________________________________________________
conv5_4_x2_scale (Scale)         (None, 128, 7, 7)     256         conv5_4_x2_bn[0][0]              
____________________________________________________________________________________________________
relu5_4_x2 (Activation)          (None, 128, 7, 7)     0           conv5_4_x2_scale[0][0]           
____________________________________________________________________________________________________
conv5_4_x2_zeropadding (ZeroPadd (None, 128, 9, 9)     0           relu5_4_x2[0][0]                 
____________________________________________________________________________________________________
conv5_4_x2 (Convolution2D)       (None, 32, 7, 7)      36864       conv5_4_x2_zeropadding[0][0]     
____________________________________________________________________________________________________
concat_5_4 (Merge)               (None, 640, 7, 7)     0           concat_5_3[0][0]                 
                                                                   conv5_4_x2[0][0]                 
____________________________________________________________________________________________________
conv5_5_x1_bn (BatchNormalizatio (None, 640, 7, 7)     2560        concat_5_4[0][0]                 
____________________________________________________________________________________________________
conv5_5_x1_scale (Scale)         (None, 640, 7, 7)     1280        conv5_5_x1_bn[0][0]              
____________________________________________________________________________________________________
relu5_5_x1 (Activation)          (None, 640, 7, 7)     0           conv5_5_x1_scale[0][0]           
____________________________________________________________________________________________________
conv5_5_x1 (Convolution2D)       (None, 128, 7, 7)     81920       relu5_5_x1[0][0]                 
____________________________________________________________________________________________________
conv5_5_x2_bn (BatchNormalizatio (None, 128, 7, 7)     512         conv5_5_x1[0][0]                 
____________________________________________________________________________________________________
conv5_5_x2_scale (Scale)         (None, 128, 7, 7)     256         conv5_5_x2_bn[0][0]              
____________________________________________________________________________________________________
relu5_5_x2 (Activation)          (None, 128, 7, 7)     0           conv5_5_x2_scale[0][0]           
____________________________________________________________________________________________________
conv5_5_x2_zeropadding (ZeroPadd (None, 128, 9, 9)     0           relu5_5_x2[0][0]                 
____________________________________________________________________________________________________
conv5_5_x2 (Convolution2D)       (None, 32, 7, 7)      36864       conv5_5_x2_zeropadding[0][0]     
____________________________________________________________________________________________________
concat_5_5 (Merge)               (None, 672, 7, 7)     0           concat_5_4[0][0]                 
                                                                   conv5_5_x2[0][0]                 
____________________________________________________________________________________________________
conv5_6_x1_bn (BatchNormalizatio (None, 672, 7, 7)     2688        concat_5_5[0][0]                 
____________________________________________________________________________________________________
conv5_6_x1_scale (Scale)         (None, 672, 7, 7)     1344        conv5_6_x1_bn[0][0]              
____________________________________________________________________________________________________
relu5_6_x1 (Activation)          (None, 672, 7, 7)     0           conv5_6_x1_scale[0][0]           
____________________________________________________________________________________________________
conv5_6_x1 (Convolution2D)       (None, 128, 7, 7)     86016       relu5_6_x1[0][0]                 
____________________________________________________________________________________________________
conv5_6_x2_bn (BatchNormalizatio (None, 128, 7, 7)     512         conv5_6_x1[0][0]                 
____________________________________________________________________________________________________
conv5_6_x2_scale (Scale)         (None, 128, 7, 7)     256         conv5_6_x2_bn[0][0]              
____________________________________________________________________________________________________
relu5_6_x2 (Activation)          (None, 128, 7, 7)     0           conv5_6_x2_scale[0][0]           
____________________________________________________________________________________________________
conv5_6_x2_zeropadding (ZeroPadd (None, 128, 9, 9)     0           relu5_6_x2[0][0]                 
____________________________________________________________________________________________________
conv5_6_x2 (Convolution2D)       (None, 32, 7, 7)      36864       conv5_6_x2_zeropadding[0][0]     
____________________________________________________________________________________________________
concat_5_6 (Merge)               (None, 704, 7, 7)     0           concat_5_5[0][0]                 
                                                                   conv5_6_x2[0][0]                 
____________________________________________________________________________________________________
conv5_7_x1_bn (BatchNormalizatio (None, 704, 7, 7)     2816        concat_5_6[0][0]                 
____________________________________________________________________________________________________
conv5_7_x1_scale (Scale)         (None, 704, 7, 7)     1408        conv5_7_x1_bn[0][0]              
____________________________________________________________________________________________________
relu5_7_x1 (Activation)          (None, 704, 7, 7)     0           conv5_7_x1_scale[0][0]           
____________________________________________________________________________________________________
conv5_7_x1 (Convolution2D)       (None, 128, 7, 7)     90112       relu5_7_x1[0][0]                 
____________________________________________________________________________________________________
conv5_7_x2_bn (BatchNormalizatio (None, 128, 7, 7)     512         conv5_7_x1[0][0]                 
____________________________________________________________________________________________________
conv5_7_x2_scale (Scale)         (None, 128, 7, 7)     256         conv5_7_x2_bn[0][0]              
____________________________________________________________________________________________________
relu5_7_x2 (Activation)          (None, 128, 7, 7)     0           conv5_7_x2_scale[0][0]           
____________________________________________________________________________________________________
conv5_7_x2_zeropadding (ZeroPadd (None, 128, 9, 9)     0           relu5_7_x2[0][0]                 
____________________________________________________________________________________________________
conv5_7_x2 (Convolution2D)       (None, 32, 7, 7)      36864       conv5_7_x2_zeropadding[0][0]     
____________________________________________________________________________________________________
concat_5_7 (Merge)               (None, 736, 7, 7)     0           concat_5_6[0][0]                 
                                                                   conv5_7_x2[0][0]                 
____________________________________________________________________________________________________
conv5_8_x1_bn (BatchNormalizatio (None, 736, 7, 7)     2944        concat_5_7[0][0]                 
____________________________________________________________________________________________________
conv5_8_x1_scale (Scale)         (None, 736, 7, 7)     1472        conv5_8_x1_bn[0][0]              
____________________________________________________________________________________________________
relu5_8_x1 (Activation)          (None, 736, 7, 7)     0           conv5_8_x1_scale[0][0]           
____________________________________________________________________________________________________
conv5_8_x1 (Convolution2D)       (None, 128, 7, 7)     94208       relu5_8_x1[0][0]                 
____________________________________________________________________________________________________
conv5_8_x2_bn (BatchNormalizatio (None, 128, 7, 7)     512         conv5_8_x1[0][0]                 
____________________________________________________________________________________________________
conv5_8_x2_scale (Scale)         (None, 128, 7, 7)     256         conv5_8_x2_bn[0][0]              
____________________________________________________________________________________________________
relu5_8_x2 (Activation)          (None, 128, 7, 7)     0           conv5_8_x2_scale[0][0]           
____________________________________________________________________________________________________
conv5_8_x2_zeropadding (ZeroPadd (None, 128, 9, 9)     0           relu5_8_x2[0][0]                 
____________________________________________________________________________________________________
conv5_8_x2 (Convolution2D)       (None, 32, 7, 7)      36864       conv5_8_x2_zeropadding[0][0]     
____________________________________________________________________________________________________
concat_5_8 (Merge)               (None, 768, 7, 7)     0           concat_5_7[0][0]                 
                                                                   conv5_8_x2[0][0]                 
____________________________________________________________________________________________________
conv5_9_x1_bn (BatchNormalizatio (None, 768, 7, 7)     3072        concat_5_8[0][0]                 
____________________________________________________________________________________________________
conv5_9_x1_scale (Scale)         (None, 768, 7, 7)     1536        conv5_9_x1_bn[0][0]              
____________________________________________________________________________________________________
relu5_9_x1 (Activation)          (None, 768, 7, 7)     0           conv5_9_x1_scale[0][0]           
____________________________________________________________________________________________________
conv5_9_x1 (Convolution2D)       (None, 128, 7, 7)     98304       relu5_9_x1[0][0]                 
____________________________________________________________________________________________________
conv5_9_x2_bn (BatchNormalizatio (None, 128, 7, 7)     512         conv5_9_x1[0][0]                 
____________________________________________________________________________________________________
conv5_9_x2_scale (Scale)         (None, 128, 7, 7)     256         conv5_9_x2_bn[0][0]              
____________________________________________________________________________________________________
relu5_9_x2 (Activation)          (None, 128, 7, 7)     0           conv5_9_x2_scale[0][0]           
____________________________________________________________________________________________________
conv5_9_x2_zeropadding (ZeroPadd (None, 128, 9, 9)     0           relu5_9_x2[0][0]                 
____________________________________________________________________________________________________
conv5_9_x2 (Convolution2D)       (None, 32, 7, 7)      36864       conv5_9_x2_zeropadding[0][0]     
____________________________________________________________________________________________________
concat_5_9 (Merge)               (None, 800, 7, 7)     0           concat_5_8[0][0]                 
                                                                   conv5_9_x2[0][0]                 
____________________________________________________________________________________________________
conv5_10_x1_bn (BatchNormalizati (None, 800, 7, 7)     3200        concat_5_9[0][0]                 
____________________________________________________________________________________________________
conv5_10_x1_scale (Scale)        (None, 800, 7, 7)     1600        conv5_10_x1_bn[0][0]             
____________________________________________________________________________________________________
relu5_10_x1 (Activation)         (None, 800, 7, 7)     0           conv5_10_x1_scale[0][0]          
____________________________________________________________________________________________________
conv5_10_x1 (Convolution2D)      (None, 128, 7, 7)     102400      relu5_10_x1[0][0]                
____________________________________________________________________________________________________
conv5_10_x2_bn (BatchNormalizati (None, 128, 7, 7)     512         conv5_10_x1[0][0]                
____________________________________________________________________________________________________
conv5_10_x2_scale (Scale)        (None, 128, 7, 7)     256         conv5_10_x2_bn[0][0]             
____________________________________________________________________________________________________
relu5_10_x2 (Activation)         (None, 128, 7, 7)     0           conv5_10_x2_scale[0][0]          
____________________________________________________________________________________________________
conv5_10_x2_zeropadding (ZeroPad (None, 128, 9, 9)     0           relu5_10_x2[0][0]                
____________________________________________________________________________________________________
conv5_10_x2 (Convolution2D)      (None, 32, 7, 7)      36864       conv5_10_x2_zeropadding[0][0]    
____________________________________________________________________________________________________
concat_5_10 (Merge)              (None, 832, 7, 7)     0           concat_5_9[0][0]                 
                                                                   conv5_10_x2[0][0]                
____________________________________________________________________________________________________
conv5_11_x1_bn (BatchNormalizati (None, 832, 7, 7)     3328        concat_5_10[0][0]                
____________________________________________________________________________________________________
conv5_11_x1_scale (Scale)        (None, 832, 7, 7)     1664        conv5_11_x1_bn[0][0]             
____________________________________________________________________________________________________
relu5_11_x1 (Activation)         (None, 832, 7, 7)     0           conv5_11_x1_scale[0][0]          
____________________________________________________________________________________________________
conv5_11_x1 (Convolution2D)      (None, 128, 7, 7)     106496      relu5_11_x1[0][0]                
____________________________________________________________________________________________________
conv5_11_x2_bn (BatchNormalizati (None, 128, 7, 7)     512         conv5_11_x1[0][0]                
____________________________________________________________________________________________________
conv5_11_x2_scale (Scale)        (None, 128, 7, 7)     256         conv5_11_x2_bn[0][0]             
____________________________________________________________________________________________________
relu5_11_x2 (Activation)         (None, 128, 7, 7)     0           conv5_11_x2_scale[0][0]          
____________________________________________________________________________________________________
conv5_11_x2_zeropadding (ZeroPad (None, 128, 9, 9)     0           relu5_11_x2[0][0]                
____________________________________________________________________________________________________
conv5_11_x2 (Convolution2D)      (None, 32, 7, 7)      36864       conv5_11_x2_zeropadding[0][0]    
____________________________________________________________________________________________________
concat_5_11 (Merge)              (None, 864, 7, 7)     0           concat_5_10[0][0]                
                                                                   conv5_11_x2[0][0]                
____________________________________________________________________________________________________
conv5_12_x1_bn (BatchNormalizati (None, 864, 7, 7)     3456        concat_5_11[0][0]                
____________________________________________________________________________________________________
conv5_12_x1_scale (Scale)        (None, 864, 7, 7)     1728        conv5_12_x1_bn[0][0]             
____________________________________________________________________________________________________
relu5_12_x1 (Activation)         (None, 864, 7, 7)     0           conv5_12_x1_scale[0][0]          
____________________________________________________________________________________________________
conv5_12_x1 (Convolution2D)      (None, 128, 7, 7)     110592      relu5_12_x1[0][0]                
____________________________________________________________________________________________________
conv5_12_x2_bn (BatchNormalizati (None, 128, 7, 7)     512         conv5_12_x1[0][0]                
____________________________________________________________________________________________________
conv5_12_x2_scale (Scale)        (None, 128, 7, 7)     256         conv5_12_x2_bn[0][0]             
____________________________________________________________________________________________________
relu5_12_x2 (Activation)         (None, 128, 7, 7)     0           conv5_12_x2_scale[0][0]          
____________________________________________________________________________________________________
conv5_12_x2_zeropadding (ZeroPad (None, 128, 9, 9)     0           relu5_12_x2[0][0]                
____________________________________________________________________________________________________
conv5_12_x2 (Convolution2D)      (None, 32, 7, 7)      36864       conv5_12_x2_zeropadding[0][0]    
____________________________________________________________________________________________________
concat_5_12 (Merge)              (None, 896, 7, 7)     0           concat_5_11[0][0]                
                                                                   conv5_12_x2[0][0]                
____________________________________________________________________________________________________
conv5_13_x1_bn (BatchNormalizati (None, 896, 7, 7)     3584        concat_5_12[0][0]                
____________________________________________________________________________________________________
conv5_13_x1_scale (Scale)        (None, 896, 7, 7)     1792        conv5_13_x1_bn[0][0]             
____________________________________________________________________________________________________
relu5_13_x1 (Activation)         (None, 896, 7, 7)     0           conv5_13_x1_scale[0][0]          
____________________________________________________________________________________________________
conv5_13_x1 (Convolution2D)      (None, 128, 7, 7)     114688      relu5_13_x1[0][0]                
____________________________________________________________________________________________________
conv5_13_x2_bn (BatchNormalizati (None, 128, 7, 7)     512         conv5_13_x1[0][0]                
____________________________________________________________________________________________________
conv5_13_x2_scale (Scale)        (None, 128, 7, 7)     256         conv5_13_x2_bn[0][0]             
____________________________________________________________________________________________________
relu5_13_x2 (Activation)         (None, 128, 7, 7)     0           conv5_13_x2_scale[0][0]          
____________________________________________________________________________________________________
conv5_13_x2_zeropadding (ZeroPad (None, 128, 9, 9)     0           relu5_13_x2[0][0]                
____________________________________________________________________________________________________
conv5_13_x2 (Convolution2D)      (None, 32, 7, 7)      36864       conv5_13_x2_zeropadding[0][0]    
____________________________________________________________________________________________________
concat_5_13 (Merge)              (None, 928, 7, 7)     0           concat_5_12[0][0]                
                                                                   conv5_13_x2[0][0]                
____________________________________________________________________________________________________
conv5_14_x1_bn (BatchNormalizati (None, 928, 7, 7)     3712        concat_5_13[0][0]                
____________________________________________________________________________________________________
conv5_14_x1_scale (Scale)        (None, 928, 7, 7)     1856        conv5_14_x1_bn[0][0]             
____________________________________________________________________________________________________
relu5_14_x1 (Activation)         (None, 928, 7, 7)     0           conv5_14_x1_scale[0][0]          
____________________________________________________________________________________________________
conv5_14_x1 (Convolution2D)      (None, 128, 7, 7)     118784      relu5_14_x1[0][0]                
____________________________________________________________________________________________________
conv5_14_x2_bn (BatchNormalizati (None, 128, 7, 7)     512         conv5_14_x1[0][0]                
____________________________________________________________________________________________________
conv5_14_x2_scale (Scale)        (None, 128, 7, 7)     256         conv5_14_x2_bn[0][0]             
____________________________________________________________________________________________________
relu5_14_x2 (Activation)         (None, 128, 7, 7)     0           conv5_14_x2_scale[0][0]          
____________________________________________________________________________________________________
conv5_14_x2_zeropadding (ZeroPad (None, 128, 9, 9)     0           relu5_14_x2[0][0]                
____________________________________________________________________________________________________
conv5_14_x2 (Convolution2D)      (None, 32, 7, 7)      36864       conv5_14_x2_zeropadding[0][0]    
____________________________________________________________________________________________________
concat_5_14 (Merge)              (None, 960, 7, 7)     0           concat_5_13[0][0]                
                                                                   conv5_14_x2[0][0]                
____________________________________________________________________________________________________
conv5_15_x1_bn (BatchNormalizati (None, 960, 7, 7)     3840        concat_5_14[0][0]                
____________________________________________________________________________________________________
conv5_15_x1_scale (Scale)        (None, 960, 7, 7)     1920        conv5_15_x1_bn[0][0]             
____________________________________________________________________________________________________
relu5_15_x1 (Activation)         (None, 960, 7, 7)     0           conv5_15_x1_scale[0][0]          
____________________________________________________________________________________________________
conv5_15_x1 (Convolution2D)      (None, 128, 7, 7)     122880      relu5_15_x1[0][0]                
____________________________________________________________________________________________________
conv5_15_x2_bn (BatchNormalizati (None, 128, 7, 7)     512         conv5_15_x1[0][0]                
____________________________________________________________________________________________________
conv5_15_x2_scale (Scale)        (None, 128, 7, 7)     256         conv5_15_x2_bn[0][0]             
____________________________________________________________________________________________________
relu5_15_x2 (Activation)         (None, 128, 7, 7)     0           conv5_15_x2_scale[0][0]          
____________________________________________________________________________________________________
conv5_15_x2_zeropadding (ZeroPad (None, 128, 9, 9)     0           relu5_15_x2[0][0]                
____________________________________________________________________________________________________
conv5_15_x2 (Convolution2D)      (None, 32, 7, 7)      36864       conv5_15_x2_zeropadding[0][0]    
____________________________________________________________________________________________________
concat_5_15 (Merge)              (None, 992, 7, 7)     0           concat_5_14[0][0]                
                                                                   conv5_15_x2[0][0]                
____________________________________________________________________________________________________
conv5_16_x1_bn (BatchNormalizati (None, 992, 7, 7)     3968        concat_5_15[0][0]                
____________________________________________________________________________________________________
conv5_16_x1_scale (Scale)        (None, 992, 7, 7)     1984        conv5_16_x1_bn[0][0]             
____________________________________________________________________________________________________
relu5_16_x1 (Activation)         (None, 992, 7, 7)     0           conv5_16_x1_scale[0][0]          
____________________________________________________________________________________________________
conv5_16_x1 (Convolution2D)      (None, 128, 7, 7)     126976      relu5_16_x1[0][0]                
____________________________________________________________________________________________________
conv5_16_x2_bn (BatchNormalizati (None, 128, 7, 7)     512         conv5_16_x1[0][0]                
____________________________________________________________________________________________________
conv5_16_x2_scale (Scale)        (None, 128, 7, 7)     256         conv5_16_x2_bn[0][0]             
____________________________________________________________________________________________________
relu5_16_x2 (Activation)         (None, 128, 7, 7)     0           conv5_16_x2_scale[0][0]          
____________________________________________________________________________________________________
conv5_16_x2_zeropadding (ZeroPad (None, 128, 9, 9)     0           relu5_16_x2[0][0]                
____________________________________________________________________________________________________
conv5_16_x2 (Convolution2D)      (None, 32, 7, 7)      36864       conv5_16_x2_zeropadding[0][0]    
____________________________________________________________________________________________________
concat_5_16 (Merge)              (None, 1024, 7, 7)    0           concat_5_15[0][0]                
                                                                   conv5_16_x2[0][0]                
____________________________________________________________________________________________________
conv5_blk_bn (BatchNormalization (None, 1024, 7, 7)    4096        concat_5_16[0][0]                
____________________________________________________________________________________________________
conv5_blk_scale (Scale)          (None, 1024, 7, 7)    2048        conv5_blk_bn[0][0]               
____________________________________________________________________________________________________
relu5_blk (Activation)           (None, 1024, 7, 7)    0           conv5_blk_scale[0][0]            
____________________________________________________________________________________________________
pool5 (GlobalAveragePooling2D)   (None, 1024)          0           relu5_blk[0][0]                  
____________________________________________________________________________________________________
dense_1 (Dense)                  (None, 512)           524800      pool5[0][0]                      
____________________________________________________________________________________________________
dropout_1 (Dropout)              (None, 512)           0           dense_1[0][0]                    
____________________________________________________________________________________________________
fc6 (Dense)                      (None, 17)            8721        dropout_1[0][0]                  
____________________________________________________________________________________________________
prob (Activation)                (None, 17)            0           fc6[0][0]                        
====================================================================================================
Total params: 7,654,673
Trainable params: 2,723,857
Non-trainable params: 4,930,816
____________________________________________________________________________________________________
None
(0, 'data', False)
(1, 'conv1_zeropadding', False)
(2, 'conv1', False)
…
