reading configurations from config file: cfg/tune_vgg19_f13_2.cfg
model: vgg19
number of frozen layers: 13
[5e-05, 5e-06]
[30, 5]
batch size: 16
(40479L, 224L, 224L, 3L)
(40479L, 17L)
____________________________________________________________________________________________________
Layer (type)                     Output Shape          Param #     Connected to                     
====================================================================================================
zeropadding2d_1 (ZeroPadding2D)  (None, 3, 226, 226)   0           zeropadding2d_input_1[0][0]      
____________________________________________________________________________________________________
convolution2d_1 (Convolution2D)  (None, 64, 224, 224)  1792        zeropadding2d_1[0][0]            
____________________________________________________________________________________________________
zeropadding2d_2 (ZeroPadding2D)  (None, 64, 226, 226)  0           convolution2d_1[0][0]            
____________________________________________________________________________________________________
convolution2d_2 (Convolution2D)  (None, 64, 224, 224)  36928       zeropadding2d_2[0][0]            
____________________________________________________________________________________________________
maxpooling2d_1 (MaxPooling2D)    (None, 64, 112, 112)  0           convolution2d_2[0][0]            
____________________________________________________________________________________________________
zeropadding2d_3 (ZeroPadding2D)  (None, 64, 114, 114)  0           maxpooling2d_1[0][0]             
____________________________________________________________________________________________________
convolution2d_3 (Convolution2D)  (None, 128, 112, 112) 73856       zeropadding2d_3[0][0]            
____________________________________________________________________________________________________
zeropadding2d_4 (ZeroPadding2D)  (None, 128, 114, 114) 0           convolution2d_3[0][0]            
____________________________________________________________________________________________________
convolution2d_4 (Convolution2D)  (None, 128, 112, 112) 147584      zeropadding2d_4[0][0]            
____________________________________________________________________________________________________
maxpooling2d_2 (MaxPooling2D)    (None, 128, 56, 56)   0           convolution2d_4[0][0]            
____________________________________________________________________________________________________
zeropadding2d_5 (ZeroPadding2D)  (None, 128, 58, 58)   0           maxpooling2d_2[0][0]             
____________________________________________________________________________________________________
convolution2d_5 (Convolution2D)  (None, 256, 56, 56)   295168      zeropadding2d_5[0][0]            
____________________________________________________________________________________________________
zeropadding2d_6 (ZeroPadding2D)  (None, 256, 58, 58)   0           convolution2d_5[0][0]            
____________________________________________________________________________________________________
convolution2d_6 (Convolution2D)  (None, 256, 56, 56)   590080      zeropadding2d_6[0][0]            
____________________________________________________________________________________________________
zeropadding2d_7 (ZeroPadding2D)  (None, 256, 58, 58)   0           convolution2d_6[0][0]            
____________________________________________________________________________________________________
convolution2d_7 (Convolution2D)  (None, 256, 56, 56)   590080      zeropadding2d_7[0][0]            
____________________________________________________________________________________________________
zeropadding2d_8 (ZeroPadding2D)  (None, 256, 58, 58)   0           convolution2d_7[0][0]            
____________________________________________________________________________________________________
convolution2d_8 (Convolution2D)  (None, 256, 56, 56)   590080      zeropadding2d_8[0][0]            
____________________________________________________________________________________________________
maxpooling2d_3 (MaxPooling2D)    (None, 256, 28, 28)   0           convolution2d_8[0][0]            
____________________________________________________________________________________________________
zeropadding2d_9 (ZeroPadding2D)  (None, 256, 30, 30)   0           maxpooling2d_3[0][0]             
____________________________________________________________________________________________________
convolution2d_9 (Convolution2D)  (None, 512, 28, 28)   1180160     zeropadding2d_9[0][0]            
____________________________________________________________________________________________________
zeropadding2d_10 (ZeroPadding2D) (None, 512, 30, 30)   0           convolution2d_9[0][0]            
____________________________________________________________________________________________________
convolution2d_10 (Convolution2D) (None, 512, 28, 28)   2359808     zeropadding2d_10[0][0]           
____________________________________________________________________________________________________
zeropadding2d_11 (ZeroPadding2D) (None, 512, 30, 30)   0           convolution2d_10[0][0]           
____________________________________________________________________________________________________
convolution2d_11 (Convolution2D) (None, 512, 28, 28)   2359808     zeropadding2d_11[0][0]           
____________________________________________________________________________________________________
zeropadding2d_12 (ZeroPadding2D) (None, 512, 30, 30)   0           convolution2d_11[0][0]           
____________________________________________________________________________________________________
convolution2d_12 (Convolution2D) (None, 512, 28, 28)   2359808     zeropadding2d_12[0][0]           
____________________________________________________________________________________________________
maxpooling2d_4 (MaxPooling2D)    (None, 512, 14, 14)   0           convolution2d_12[0][0]           
____________________________________________________________________________________________________
zeropadding2d_13 (ZeroPadding2D) (None, 512, 16, 16)   0           maxpooling2d_4[0][0]             
____________________________________________________________________________________________________
convolution2d_13 (Convolution2D) (None, 512, 14, 14)   2359808     zeropadding2d_13[0][0]           
____________________________________________________________________________________________________
zeropadding2d_14 (ZeroPadding2D) (None, 512, 16, 16)   0           convolution2d_13[0][0]           
____________________________________________________________________________________________________
convolution2d_14 (Convolution2D) (None, 512, 14, 14)   2359808     zeropadding2d_14[0][0]           
____________________________________________________________________________________________________
zeropadding2d_15 (ZeroPadding2D) (None, 512, 16, 16)   0           convolution2d_14[0][0]           
____________________________________________________________________________________________________
convolution2d_15 (Convolution2D) (None, 512, 14, 14)   2359808     zeropadding2d_15[0][0]           
____________________________________________________________________________________________________
zeropadding2d_16 (ZeroPadding2D) (None, 512, 16, 16)   0           convolution2d_15[0][0]           
____________________________________________________________________________________________________
convolution2d_16 (Convolution2D) (None, 512, 14, 14)   2359808     zeropadding2d_16[0][0]           
____________________________________________________________________________________________________
maxpooling2d_5 (MaxPooling2D)    (None, 512, 7, 7)     0           convolution2d_16[0][0]           
____________________________________________________________________________________________________
flatten_1 (Flatten)              (None, 25088)         0           maxpooling2d_5[0][0]             
____________________________________________________________________________________________________
sequential_2 (Sequential)        (None, 17)            1558545     dense_3[0][0]                    
====================================================================================================
Total params: 21,582,929
Trainable params: 21,027,601
Non-trainable params: 555,328
____________________________________________________________________________________________________
None
(0, 'zeropadding2d_1', False)
(1, 'convolution2d_1', False)
(2, 'zeropadding2d_2', False)
…
