…
40575/40479 [==============================] - 834s - loss: 0.1163 - acc: 0.9550 - recall: 0.8124 - precision: 0.9120 - val_loss: 0.1132 - val_acc: 0.9558 - val_recall: 0.8207 - val_precision: 0.9087
model training complete
____________________________________________________________________________________________________
Layer (type)                     Output Shape          Param #     Connected to                     
====================================================================================================
convolution2d_1 (Convolution2D)  (None, 64, 62, 62)    2368        convolution2d_input_1[0][0]      
____________________________________________________________________________________________________
batchnormalization_1 (BatchNorma (None, 64, 62, 62)    248         convolution2d_1[0][0]            
____________________________________________________________________________________________________
activation_1 (Activation)        (None, 64, 62, 62)    0           batchnormalization_1[0][0]       
____________________________________________________________________________________________________
maxpooling2d_1 (MaxPooling2D)    (None, 64, 31, 31)    0           activation_1[0][0]               
____________________________________________________________________________________________________
convolution2d_2 (Convolution2D)  (None, 64, 29, 29)    36928       maxpooling2d_1[0][0]             
____________________________________________________________________________________________________
batchnormalization_2 (BatchNorma (None, 64, 29, 29)    116         convolution2d_2[0][0]            
____________________________________________________________________________________________________
activation_2 (Activation)        (None, 64, 29, 29)    0           batchnormalization_2[0][0]       
____________________________________________________________________________________________________
maxpooling2d_2 (MaxPooling2D)    (None, 64, 14, 14)    0           activation_2[0][0]               
____________________________________________________________________________________________________
convolution2d_3 (Convolution2D)  (None, 128, 12, 12)   73856       maxpooling2d_2[0][0]             
____________________________________________________________________________________________________
batchnormalization_3 (BatchNorma (None, 128, 12, 12)   48          convolution2d_3[0][0]            
____________________________________________________________________________________________________
activation_3 (Activation)        (None, 128, 12, 12)   0           batchnormalization_3[0][0]       
____________________________________________________________________________________________________
maxpooling2d_3 (MaxPooling2D)    (None, 128, 6, 6)     0           activation_3[0][0]               
____________________________________________________________________________________________________
convolution2d_4 (Convolution2D)  (None, 256, 4, 4)     295168      maxpooling2d_3[0][0]             
____________________________________________________________________________________________________
batchnormalization_4 (BatchNorma (None, 256, 4, 4)     16          convolution2d_4[0][0]            
____________________________________________________________________________________________________
activation_4 (Activation)        (None, 256, 4, 4)     0           batchnormalization_4[0][0]       
____________________________________________________________________________________________________
maxpooling2d_4 (MaxPooling2D)    (None, 256, 2, 2)     0           activation_4[0][0]               
____________________________________________________________________________________________________
flatten_1 (Flatten)              (None, 1024)          0           maxpooling2d_4[0][0]             
____________________________________________________________________________________________________
dense_1 (Dense)                  (None, 128)           131200      flatten_1[0][0]                  
____________________________________________________________________________________________________
dropout_1 (Dropout)              (None, 128)           0           dense_1[0][0]                    
____________________________________________________________________________________________________
dense_2 (Dense)                  (None, 17)            2193        dropout_1[0][0]                  
====================================================================================================
Total params: 542,141
Trainable params: 541,927
Non-trainable params: 214
____________________________________________________________________________________________________
None
label:0 threshold:0.17 score:0.862806117307
label:1 threshold:0.17 score:0.866050033099
…
