…
40510/40479 [==============================] - 99s - loss: 0.1357 - acc: 0.9468 - recall: 0.7888 - precision: 0.8850 - val_loss: 0.1366 - val_acc: 0.9446 - val_recall: 0.7926 - val_precision: 0.8682
model training complete
____________________________________________________________________________________________________
Layer (type)                     Output Shape          Param #     Connected to                     
====================================================================================================
convolution2d_1 (Convolution2D)  (None, 64, 62, 62)    1792        convolution2d_input_1[0][0]      
____________________________________________________________________________________________________
activation_1 (Activation)        (None, 64, 62, 62)    0           convolution2d_1[0][0]            
____________________________________________________________________________________________________
maxpooling2d_1 (MaxPooling2D)    (None, 64, 31, 31)    0           activation_1[0][0]               
____________________________________________________________________________________________________
dropout_1 (Dropout)              (None, 64, 31, 31)    0           maxpooling2d_1[0][0]             
____________________________________________________________________________________________________
zeropadding2d_1 (ZeroPadding2D)  (None, 64, 33, 33)    0           dropout_1[0][0]                  
____________________________________________________________________________________________________
convolution2d_2 (Convolution2D)  (None, 64, 31, 31)    36928       zeropadding2d_1[0][0]            
____________________________________________________________________________________________________
activation_2 (Activation)        (None, 64, 31, 31)    0           convolution2d_2[0][0]            
____________________________________________________________________________________________________
zeropadding2d_2 (ZeroPadding2D)  (None, 64, 33, 33)    0           activation_2[0][0]               
____________________________________________________________________________________________________
convolution2d_3 (Convolution2D)  (None, 64, 31, 31)    36928       zeropadding2d_2[0][0]            
____________________________________________________________________________________________________
activation_3 (Activation)        (None, 64, 31, 31)    0           convolution2d_3[0][0]            
____________________________________________________________________________________________________
maxpooling2d_2 (MaxPooling2D)    (None, 64, 15, 15)    0           activation_3[0][0]               
____________________________________________________________________________________________________
dropout_2 (Dropout)              (None, 64, 15, 15)    0           maxpooling2d_2[0][0]             
____________________________________________________________________________________________________
zeropadding2d_3 (ZeroPadding2D)  (None, 64, 17, 17)    0           dropout_2[0][0]                  
____________________________________________________________________________________________________
convolution2d_4 (Convolution2D)  (None, 128, 15, 15)   73856       zeropadding2d_3[0][0]            
____________________________________________________________________________________________________
activation_4 (Activation)        (None, 128, 15, 15)   0           convolution2d_4[0][0]            
____________________________________________________________________________________________________
zeropadding2d_4 (ZeroPadding2D)  (None, 128, 17, 17)   0           activation_4[0][0]               
____________________________________________________________________________________________________
convolution2d_5 (Convolution2D)  (None, 128, 15, 15)   147584      zeropadding2d_4[0][0]            
____________________________________________________________________________________________________
activation_5 (Activation)        (None, 128, 15, 15)   0           convolution2d_5[0][0]            
____________________________________________________________________________________________________
maxpooling2d_3 (MaxPooling2D)    (None, 128, 7, 7)     0           activation_5[0][0]               
____________________________________________________________________________________________________
dropout_3 (Dropout)              (None, 128, 7, 7)     0           maxpooling2d_3[0][0]             
____________________________________________________________________________________________________
zeropadding2d_5 (ZeroPadding2D)  (None, 128, 9, 9)     0           dropout_3[0][0]                  
____________________________________________________________________________________________________
convolution2d_6 (Convolution2D)  (None, 256, 7, 7)     295168      zeropadding2d_5[0][0]            
____________________________________________________________________________________________________
activation_6 (Activation)        (None, 256, 7, 7)     0           convolution2d_6[0][0]            
____________________________________________________________________________________________________
zeropadding2d_6 (ZeroPadding2D)  (None, 256, 9, 9)     0           activation_6[0][0]               
____________________________________________________________________________________________________
convolution2d_7 (Convolution2D)  (None, 256, 7, 7)     590080      zeropadding2d_6[0][0]            
____________________________________________________________________________________________________
activation_7 (Activation)        (None, 256, 7, 7)     0           convolution2d_7[0][0]            
____________________________________________________________________________________________________
maxpooling2d_4 (MaxPooling2D)    (None, 256, 3, 3)     0           activation_7[0][0]               
____________________________________________________________________________________________________
dropout_4 (Dropout)              (None, 256, 3, 3)     0           maxpooling2d_4[0][0]             
____________________________________________________________________________________________________
flatten_1 (Flatten)              (None, 2304)          0           dropout_4[0][0]                  
____________________________________________________________________________________________________
dense_1 (Dense)                  (None, 512)           1180160     flatten_1[0][0]                  
____________________________________________________________________________________________________
dropout_5 (Dropout)              (None, 512)           0           dense_1[0][0]                    
____________________________________________________________________________________________________
dense_2 (Dense)                  (None, 17)            8721        dropout_5[0][0]                  
====================================================================================================
Total params: 2,371,217
Trainable params: 2,371,217
Non-trainable params: 0
____________________________________________________________________________________________________
None
label:0 threshold:0.13 score:0.829137261926
label:1 threshold:0.04 score:0.83593459388
…
