…
40702/40479 [==============================] - 105s - loss: 0.1211 - acc: 0.9537 - recall: 0.8163 - precision: 0.9010 - val_loss: 0.1207 - val_acc: 0.9533 - val_recall: 0.7925 - val_precision: 0.9200
model training complete
____________________________________________________________________________________________________
Layer (type)                     Output Shape          Param #     Connected to                     
====================================================================================================
convolution2d_1 (Convolution2D)  (None, 64, 62, 62)    2368        convolution2d_input_1[0][0]      
____________________________________________________________________________________________________
activation_1 (Activation)        (None, 64, 62, 62)    0           convolution2d_1[0][0]            
____________________________________________________________________________________________________
maxpooling2d_1 (MaxPooling2D)    (None, 64, 31, 31)    0           activation_1[0][0]               
____________________________________________________________________________________________________
dropout_1 (Dropout)              (None, 64, 31, 31)    0           maxpooling2d_1[0][0]             
____________________________________________________________________________________________________
convolution2d_2 (Convolution2D)  (None, 64, 29, 29)    36928       dropout_1[0][0]                  
____________________________________________________________________________________________________
activation_2 (Activation)        (None, 64, 29, 29)    0           convolution2d_2[0][0]            
____________________________________________________________________________________________________
maxpooling2d_2 (MaxPooling2D)    (None, 64, 14, 14)    0           activation_2[0][0]               
____________________________________________________________________________________________________
dropout_2 (Dropout)              (None, 64, 14, 14)    0           maxpooling2d_2[0][0]             
____________________________________________________________________________________________________
convolution2d_3 (Convolution2D)  (None, 128, 12, 12)   73856       dropout_2[0][0]                  
____________________________________________________________________________________________________
activation_3 (Activation)        (None, 128, 12, 12)   0           convolution2d_3[0][0]            
____________________________________________________________________________________________________
maxpooling2d_3 (MaxPooling2D)    (None, 128, 6, 6)     0           activation_3[0][0]               
____________________________________________________________________________________________________
dropout_3 (Dropout)              (None, 128, 6, 6)     0           maxpooling2d_3[0][0]             
____________________________________________________________________________________________________
convolution2d_4 (Convolution2D)  (None, 256, 4, 4)     295168      dropout_3[0][0]                  
____________________________________________________________________________________________________
activation_4 (Activation)        (None, 256, 4, 4)     0           convolution2d_4[0][0]            
____________________________________________________________________________________________________
maxpooling2d_4 (MaxPooling2D)    (None, 256, 2, 2)     0           activation_4[0][0]               
____________________________________________________________________________________________________
dropout_4 (Dropout)              (None, 256, 2, 2)     0           maxpooling2d_4[0][0]             
____________________________________________________________________________________________________
flatten_1 (Flatten)              (None, 1024)          0           dropout_4[0][0]                  
____________________________________________________________________________________________________
dense_1 (Dense)                  (None, 512)           524800      flatten_1[0][0]                  
____________________________________________________________________________________________________
dropout_5 (Dropout)              (None, 512)           0           dense_1[0][0]                    
____________________________________________________________________________________________________
dense_2 (Dense)                  (None, 17)            8721        dropout_5[0][0]                  
====================================================================================================
Total params: 941,841
Trainable params: 941,841
Non-trainable params: 0
____________________________________________________________________________________________________
None
label:0 threshold:0.2 score:0.84081827796
label:1 threshold:0.28 score:0.843848940303
…
