…
36431/36431 [==============================] - 117s - loss: 0.2559 - acc: 0.9052 - recall: 0.5687 - precision: 0.8148 - val_loss: 0.2564 - val_acc: 0.9049 - val_recall: 0.5679 - val_precision: 0.8125
('f2 validation scores', [0.66687943468365329, 0.66687943468365329, 0.66687943468365329, 0.66687943468365329, 0.66687943468365329])
model training complete
[… ____________________________________________________________________________________________________
Layer (type)                     Output Shape          Param #     Connected to                     
====================================================================================================
batchnormalization_1 (BatchNorma (None, 3, 128, 128)   512         batchnormalization_input_1[0][0] 
____________________________________________________________________________________________________
convolution2d_1 (Convolution2D)  (None, 64, 126, 126)  1792        batchnormalization_1[0][0]       
____________________________________________________________________________________________________
activation_1 (Activation)        (None, 64, 126, 126)  0           convolution2d_1[0][0]            
____________________________________________________________________________________________________
maxpooling2d_1 (MaxPooling2D)    (None, 64, 63, 63)    0           activation_1[0][0]               
____________________________________________________________________________________________________
dropout_1 (Dropout)              (None, 64, 63, 63)    0           maxpooling2d_1[0][0]             
____________________________________________________________________________________________________
convolution2d_2 (Convolution2D)  (None, 64, 61, 61)    36928       dropout_1[0][0]                  
____________________________________________________________________________________________________
activation_2 (Activation)        (None, 64, 61, 61)    0           convolution2d_2[0][0]            
____________________________________________________________________________________________________
convolution2d_3 (Convolution2D)  (None, 64, 59, 59)    36928       activation_2[0][0]               
____________________________________________________________________________________________________
activation_3 (Activation)        (None, 64, 59, 59)    0           convolution2d_3[0][0]            
____________________________________________________________________________________________________
maxpooling2d_2 (MaxPooling2D)    (None, 64, 29, 29)    0           activation_3[0][0]               
____________________________________________________________________________________________________
dropout_2 (Dropout)              (None, 64, 29, 29)    0           maxpooling2d_2[0][0]             
____________________________________________________________________________________________________
convolution2d_4 (Convolution2D)  (None, 128, 27, 27)   73856       dropout_2[0][0]                  
____________________________________________________________________________________________________
activation_4 (Activation)        (None, 128, 27, 27)   0           convolution2d_4[0][0]            
____________________________________________________________________________________________________
convolution2d_5 (Convolution2D)  (None, 128, 25, 25)   147584      activation_4[0][0]               
____________________________________________________________________________________________________
activation_5 (Activation)        (None, 128, 25, 25)   0           convolution2d_5[0][0]            
____________________________________________________________________________________________________
maxpooling2d_3 (MaxPooling2D)    (None, 128, 12, 12)   0           activation_5[0][0]               
____________________________________________________________________________________________________
dropout_3 (Dropout)              (None, 128, 12, 12)   0           maxpooling2d_3[0][0]             
____________________________________________________________________________________________________
convolution2d_6 (Convolution2D)  (None, 256, 10, 10)   295168      dropout_3[0][0]                  
____________________________________________________________________________________________________
activation_6 (Activation)        (None, 256, 10, 10)   0           convolution2d_6[0][0]            
____________________________________________________________________________________________________
convolution2d_7 (Convolution2D)  (None, 256, 8, 8)     590080      activation_6[0][0]               
____________________________________________________________________________________________________
activation_7 (Activation)        (None, 256, 8, 8)     0           convolution2d_7[0][0]            
____________________________________________________________________________________________________
maxpooling2d_4 (MaxPooling2D)    (None, 256, 4, 4)     0           activation_7[0][0]               
____________________________________________________________________________________________________
dropout_4 (Dropout)              (None, 256, 4, 4)     0           maxpooling2d_4[0][0]             
____________________________________________________________________________________________________
flatten_1 (Flatten)              (None, 4096)          0           dropout_4[0][0]                  
____________________________________________________________________________________________________
dense_1 (Dense)                  (None, 512)           2097664     flatten_1[0][0]                  
____________________________________________________________________________________________________
batchnormalization_2 (BatchNorma (None, 512)           2048        dense_1[0][0]                    
____________________________________________________________________________________________________
dropout_5 (Dropout)              (None, 512)           0           batchnormalization_2[0][0]       
____________________________________________________________________________________________________
dense_2 (Dense)                  (None, 17)            8721        dropout_5[0][0]                  
====================================================================================================
Total params: 3,291,281
Trainable params: 3,290,001
Non-trainable params: 1,280
____________________________________________________________________________________________________
None
(4048L, 17L)
2
label:0 threshold:0.01 score:0.641347731036
label:1 threshold:0.0 score:0.641347731036
…
