…
cision: 0.9081
('f2 validation scores', [0.89586761598702469, 0.89601253672735903, 0.89553490598858865, 0.89550764604948507, 0.89535857481213943, 0.89552119503879246, 0.89555990352093817, 0.89500479177842784, 0.89466208076486531])
model training complete
[… ____________________________________________________________________________________________________
Layer (type)                     Output Shape          Param #     Connected to                     
====================================================================================================
convolution2d_1 (Convolution2D)  (None, 64, 126, 126)  2368        convolution2d_input_1[0][0]      
____________________________________________________________________________________________________
activation_1 (Activation)        (None, 64, 126, 126)  0           convolution2d_1[0][0]            
____________________________________________________________________________________________________
maxpooling2d_1 (MaxPooling2D)    (None, 64, 63, 63)    0           activation_1[0][0]               
____________________________________________________________________________________________________
convolution2d_2 (Convolution2D)  (None, 64, 61, 61)    36928       maxpooling2d_1[0][0]             
____________________________________________________________________________________________________
activation_2 (Activation)        (None, 64, 61, 61)    0           convolution2d_2[0][0]            
____________________________________________________________________________________________________
maxpooling2d_2 (MaxPooling2D)    (None, 64, 30, 30)    0           activation_2[0][0]               
____________________________________________________________________________________________________
convolution2d_3 (Convolution2D)  (None, 128, 28, 28)   73856       maxpooling2d_2[0][0]             
____________________________________________________________________________________________________
activation_3 (Activation)        (None, 128, 28, 28)   0           convolution2d_3[0][0]            
____________________________________________________________________________________________________
maxpooling2d_3 (MaxPooling2D)    (None, 128, 14, 14)   0           activation_3[0][0]               
____________________________________________________________________________________________________
convolution2d_4 (Convolution2D)  (None, 256, 12, 12)   295168      maxpooling2d_3[0][0]             
____________________________________________________________________________________________________
activation_4 (Activation)        (None, 256, 12, 12)   0           convolution2d_4[0][0]            
____________________________________________________________________________________________________
maxpooling2d_4 (MaxPooling2D)    (None, 256, 6, 6)     0           activation_4[0][0]               
____________________________________________________________________________________________________
flatten_1 (Flatten)              (None, 9216)          0           maxpooling2d_4[0][0]             
____________________________________________________________________________________________________
dense_1 (Dense)                  (None, 128)           1179776     flatten_1[0][0]                  
____________________________________________________________________________________________________
dropout_1 (Dropout)              (None, 128)           0           dense_1[0][0]                    
____________________________________________________________________________________________________
dense_2 (Dense)                  (None, 17)            2193        dropout_1[0][0]                  
====================================================================================================
Total params: 1,590,289
Trainable params: 1,590,289
Non-trainable params: 0
____________________________________________________________________________________________________
None
(4048L, 17L)
2
label:0 threshold:0.16 score:0.859926091835
label:1 threshold:0.14 score:0.862703908634
…
